model_test copy.pt (torch, 862123 bytes, 10 tensors)

fc1.weight f4 [576, 8]
-0.6893395 0.3969785 0.53740025 0.24246013 -0.5248176 -0.3575718 -0.030699253 0.05051652
-0.056242824 -0.6500263 0.18323554 0.417895 0.14892091 0.144696 -0.22449319 0.0021948782
-0.5305037 0.44021833 0.35740277 0.67942375 -0.48378268 -0.18299653 0.06801144 -0.25219738
0.07532908 -0.1068096 -0.45078847 -0.23666546 -0.22307353 -0.124151394 0.31863883 -0.10551182
0.31250882 -1.1974614 0.018849608 -0.4886472 -0.32103157 0.049880605 0.102592304 0.110544115
-0.25268528 -0.63635397 -0.090198845 -0.22455828 0.17024653 -0.4253069 0.30763444 -0.07559268
0.09636419 -0.48296502 -0.08313347 0.08368521 0.45822322 -0.11130119 0.35104445 -0.12748846
-0.6123502 0.19499972 -0.49027196 0.056262616 0.3706912 -0.19505288 0.07397728 -0.2801253
-0.5901342 -0.3024255 0.41505817 -0.22017969 0.4758241 -0.13367654 -0.13120458 0.2479177
-0.06399067 0.25721687 0.23859268 -0.0032193095 0.35426491 0.1518327 -0.36220556 -0.32966977
-0.2492081 -0.10652168 -0.34325975 -0.34234548 0.3502961 -0.47989172 -0.1738794 -0.4669268
-0.59400743 -1.0633525 0.21076639 -0.58463544 -0.24041317 -0.2998227 -0.0117998095 0.104584545
-0.30710787 -0.48980388 -0.29496065 -0.18415079 -0.0062468667 0.23604262 0.42245436 0.102076635
0.32218093 -0.8481029 -0.048570566 0.010601908 0.20908062 0.0028189004 -0.07049183 -0.1988358
-0.04961534 -0.48858374 -0.0203222 -0.35489655 -0.040527895 0.14805472 -0.03728868 -0.3154053
-0.695813 -0.9584971 -0.12440968 -0.48298776 -0.06325584 -0.25123864 0.19114676 -0.13366503
-0.43166906 0.68861485 -0.19810389 0.56828195 0.236565 0.1937064 -0.28871685 -0.11215966
0.3885751 0.68706584 0.3899298 -0.5387715 -0.65298927 0.20348774 -0.088722855 -0.0982849
0.14179139 -0.2630124 0.01193696 0.18774658 -0.22847441 0.35052085 -0.2772898 0.32285962
0.064018205 -0.9707321 -0.1676915 -0.68951946 0.14720303 0.29781002 0.31807345 0.1687182
0.0026555369 -0.8203465 -0.14404227 0.045251526 0.34969088 -0.4900938 0.26695374 0.24834715
0.23694085 -0.38283703 0.07625177 0.13600528 -0.095899746 -0.11555017 0.1806193 0.11296144
0.15184212 0.27621403 0.60003906 -0.35325462 0.5251089 -0.5553673 0.30541876 -0.23441699
0.2592374 0.25616562 0.40961155 -0.2216103 0.19224235 -0.74159724 0.0009962516 -0.05079882
0.28653103 -0.75468737 0.3012105 -0.13117373 0.09560913 -0.07193727 0.3785527 -0.09194666
-0.1981027 0.6555948 0.29288864 0.34813285 -0.1022659 -0.52155614 -0.093464285 -0.07129515
-0.6120617 -0.92151004 -0.7380328 0.12945259 -0.12522139 0.3015054 -0.031079084 0.0009147018
0.36431903 -0.21334419 -0.33082908 0.8789864 -0.03245404 0.13110977 0.18879993 0.31937048
-0.8987788 0.16096398 0.26844013 -0.6612244 -0.38203177 -0.054141436 0.1360754 0.2960243
0.46036935 0.16111818 0.0086975405 -0.037245613 -0.669584 -0.67257 -0.02746496 0.059679646
-0.3249387 -0.14805117 -0.34258676 0.14772587 -0.0842332 -0.4812665 0.06719042 0.13976334
0.66098064 0.49332532 0.025986683 0.85789466 0.5402717 0.22738516 -0.33385235 -0.10607866
00000000: 8e78 30bf c440 cb3e 1093 093f 7847 783e
00000010: 725a 06bf a713 b7be 007d fbbc 69ea 4e3d
00000020: e05e 66bd 2068 26bf 19a2 3b3e 55f6 d53e
00000030: b97e 183e 302b 143e 8be1 65be f2d7 0f3b
00000040: 17cf 07bf 4c64 e13e 7ffd b63e b7ee 2d3f
00000050: 5db2 f7be 7163 3bbe 9549 8b3d 0420 81be
00000060: 2246 9a3d febe dabd bfcd e6be 6e58 72be
00000070: 636d 64be 1643 febd a124 a33e 9516 d8bd
00000080: 2801 a03e 6a46 99bf 7e6a 9a3c f72f fabe
00000090: 405e a4be 9b4f 4c3d ea1b d23d f464 e23d
000000a0: f75f 81be 18e8 22bf 2cba b8bd 9bf2 65be
000000b0: 1b55 2e3e d3c1 d9be 4382 9d3e 56d0 9abd
000000c0: 975a c53d 3147 f7be e141 aabd 2763 ab3d
000000d0: 3c9c ea3e e1f1 e3bd 19bc b33e 568c 02be
000000e0: fcc2 1cbf 02ae 473e ed04 fbbe a173 663d
000000f0: 3dcb bd3e f1bb 47be 6681 973d 956c 8fbe
00000100: 0913 17bf 84d7 9abe 8182 d43e c976 61be
00000110: 379f f33e 81e2 08be 7e5a 06be 23de 7d3e
00000120: 8a0d 83bd eeb1 833e a451 743e 0dfb 52bb
00000130: 3662 b53e 087a 1b3e 0273 b9be 7aca a8be
00000140: 6830 7fbe 0a28 dabd bebf afbe e847 afbe
00000150: 035a b33e 5eb4 f5be 710d 32be 0811 efbe
00000160: df10 18bf ef1b 88bf 25d3 573e abaa 15bf
00000170: df2e 76be 5c82 99be fd53 41bc 6c30 d63d
00000180: 3e3d 9dbe 93c7 fabe 1505 97be 0692 3cbe
00000190: 84b2 ccbb 28b5 713e f04b d83e 8e0d d13d
000001a0: e6f4 a43e 461d 59bf eef1 46bd a0b3 2d3c
000001b0: 3b19 563e 4dbd 383b 055e 90bd 9d9b 4bbe
000001c0: 7439 4bbd a627 fabe be7a a6bc 00b5 b5be
000001d0: 9400 26bd a89b 173e 04bc 18bd ce7c a1be
000001e0: cd20 32bf 1160 75bf 81ca febd 2c4a f7be
000001f0: 478c 81bd 5aa2 80be fabb 433e 7cdf 08be
00000200: ba03 ddbe 1049 303f bfdb 4abe ed7a 113f
00000210: 183e 723e f85a 463e b2d2 93be f7b3 e5bd
00000220: 51f3 c63e 8ce3 2f3f e1a4 c73e eeec 09bf
00000230: 4e2a 27bf 175f 503e 54b4 b5bd 9849 c9bd
00000240: c331 113e 90a9 86be 3d93 433c a440 403e
00000250: 32f5 69be 7877 b33e eef8 8dbe db4d a53e
00000260: fa1b 833d e681 78bf 52b7 2bbe 5984 30bf
00000270: 64bc 163e 8e7a 983e 86da a23e 77c4 2c3e
00000280: 8408 2e3b 3a02 52bf d17f 13be aa59 393d
00000290: af0a b33e 93ed fabe 29ae 883e b74e 7e3e
000002a0: 9fa0 723e 3703 c4be e329 9c3d f844 0b3e
000002b0: 1667 c4bd 91a5 ecbd 44f4 383e 5458 e73d
000002c0: 807c 1b3e ed6b 8d3e 299c 193f cadd b4be
000002d0: 896d 063f 8d2c 0ebf d95f 9c3e 020b 70be
000002e0: c4ba 843e 2428 833e 9bb8 d13e cfed 62be
000002f0: 2edb 443e 51d9 3dbf a894 823a 6c12 50bd
00000300: 32b4 923e 3133 41bf 4338 9a3e 6852 06be
00000310: b8ce c33d d953 93bd a9d1 c13e 884e bcbd
00000320: 6fdb 4abe 10d5 273f 80f5 953e 783e b23e
00000330: c970 d1bd b484 05bf 346a bfbd 3103 92bd
00000340: 13b0 1cbf 15e8 6bbf b8ef 3cbf 388f 043e
00000350: 093a 00be ea5e 9a3e 9099 febc 99c8 6f3a
00000360: 0688 ba3e e676 5abe 6e62 a9be 4105 613f
00000370: 87ee 04bd a441 063e c554 413e 8784 a33e
00000380: 5e16 66bf bed3 243e fc70 893e 0146 29bf
00000390: ab99 c3be 69c3 5dbd 5a57 0b3e 7f90 973e
000003a0: 88b5 eb3e 2afc 243e 2180 0e3c db8e 18bd
000003b0: db69 2bbf 8c2d 2cbf 32fe e0bc a572 743d
000003c0: 5e5e a6be ba9a 17be 8867 afbe 7345 173e
000003d0: 7582 acbd 9068 f6be 229b 893d 1f1e 0f3e
000003e0: 0736 293f 2395 fc3e 06e2 d43c fc9e 5b3f
000003f0: 3f4f 0a3f a8d7 683e b2ee aabe c53f d9bd

fc1.bias f4 [576]
0.13323264 0.44843945 -0.19601274 0.5914394 -0.062284928 -0.09348262 0.24822743 0.32362184
0.20961156 0.35901055 0.51724285 0.003908583 0.0038761313 0.48925483 0.569481 -0.06592528
0.10857447 0.17728712 -0.39211002 -0.21642302 0.3824941 0.47846037 0.2457168 0.15971547
0.40722767 0.05131726 -0.008574122 0.34517428 -0.031954896 0.019336985 -0.26566818 0.34144384
0.35316324 0.47964326 -0.2957006 0.44816673 0.20432352 0.3083589 0.7084628 -0.44357806
0.1349125 -0.23491822 0.027071264 0.5037129 -0.0654563 0.29645497 -0.43539754 0.13881421
0.3915625 0.4156278 0.5392748 0.25879934 0.42290205 -0.12813202 -0.5772249 0.54476637
-0.20764425 0.12906031 -0.14192781 -0.20766602 0.36482212 0.3228127 0.61536455 -0.17734666
0.048189044 -0.21278156 0.026784794 0.21646617 0.41607955 0.4368218 -0.015729744 0.0599952
0.5021952 0.12670429 -0.14316842 0.10675666 -0.25229073 0.09141306 -0.06823127 0.22496618
0.5100418 0.096490875 0.03452892 -0.158946 0.07157878 0.33469516 -0.11085744 0.16309604
0.20035124 0.2699737 0.48199567 -0.12783179 0.4492298 0.6587339 0.29234803 0.28673276
0.5027024 -0.46101305 -0.0016976844 -0.20116813 0.18340231 0.29744977 0.45293537 -0.098093435
0.007790816 -0.107364185 0.32801723 -0.16442545 -0.23016553 0.28907597 0.011527188 -0.38497975
0.30398107 0.080093466 0.32621938 0.5083498 0.28899336 0.2162664 -0.097754 0.4944763
0.45769906 -0.05079033 0.3846887 0.46676177 0.28049234 -0.096373215 -0.002873864 -0.18868396
0.50400364 0.25753516 0.34263322 0.15297851 -0.3614065 0.4889166 -0.028190237 -0.24809943
-0.24402238 -0.4693881 0.394678 -0.13260092 -0.31021664 -0.15503278 0.009884163 -0.37261334
-0.6005455 0.71166354 0.0019948988 0.42767346 0.22579165 0.39269963 0.44907734 -0.06741058
-0.18234475 0.50869983 0.5867333 -0.1289847 0.16925861 0.08742331 0.10456707 -0.049526937
-0.06989282 0.34036887 -0.11232859 -0.109898575 0.016516497 -0.42277902 0.17782204 -0.36774454
-0.122304 -0.19829847 0.05694604 0.31301644 -0.063524194 0.59258455 0.24111637 0.17136963
-0.08074207 0.29787225 0.16748396 -0.1263425 0.55727243 0.28042036 -0.0916502 0.067116916
0.5367494 0.120112434 0.5317328 0.489108 0.04351474 0.15330209 -0.341501 -0.0018353715
0.05650345 -0.24190164 0.068962105 -0.14485528 -0.25633428 0.34350485 0.5742253 -0.09599675
-0.18317753 0.41174528 0.15542386 -0.22453153 -0.18365225 0.23993933 0.2466771 0.14706983
0.039272726 -0.09761995 -0.3359256 0.18597308 -0.035598576 -0.144228 0.09930184 0.39534628
0.2534062 0.029563311 -0.09675526 -0.03515996 0.12307854 -0.1571957 0.49605703 -0.09050586
0.23735099 -0.22160533 0.16252838 0.07335995 -0.40249667 0.4163517 0.26638642 0.27927977
0.1786663 0.18669805 -0.15725937 0.19484378 0.075122155 0.3088111 0.38189036 0.17451964
-0.06642673 0.28215933 0.2615396 0.37629268 -0.08117463 -0.0071662115 -0.084096916 0.12900981
0.5275765 0.28135762 0.32725137 0.2153411 0.5901266 -0.16777423 0.08803311 -0.1537778
00000000: 236e 083e db99 e53e 90b7 48be 9368 173f
00000010: 7b1e 7fbd d173 bfbd 552f 7e3e c3b1 a53e
00000020: 6aa4 563e 3bd0 b73e 076a 043f 9213 803b
00000030: b106 7e3b 9c7f fa3e 82c9 113f d503 87bd
00000040: 4b5c de3d c18a 353e a5c2 c8be ff9d 5dbe
00000050: 44d6 c33e c2f8 f43e 2f9d 7b3e 748c 233e
00000060: 2580 d03e 0c32 523d 797a 0cbc afba b03e
00000070: 23e3 02bd 9968 9e3c a905 88be bad1 ae3e
00000080: d0d1 b43e cd93 f53e 1266 97be 1c76 e53e
00000090: 2f3a 513e 38e1 9d3e d15d 353f aa1c e3be
000000a0: 8126 0a3e 678e 70be 8ec4 dd3c 54f3 003f
000000b0: f40d 86bd f2c8 973e 6dec debe 5025 0e3e
000000c0: e17a c83e 2bcd d43e ea0d 0a3f 5981 843e
000000d0: 9e86 d83e 0a35 03be 03c5 13bf cf75 0b3f
000000e0: b2a0 54be 6328 043e 8655 11be 67a6 54be
000000f0: f7c9 ba3e b547 a53e 8888 1d3f 5d9a 35be
00000100: e061 453d 69e3 59be c96b db3c 4fa9 5d3e
00000110: 6108 d53e 1ba7 df3e aadb 80bc 87bd 753d
00000120: dd8f 003f c5be 013e be9a 12be 3ca3 da3d
00000130: 402c 81be c536 bb3d d6bc 8bbd 895d 663e
00000140: 1992 023f 029d c53d 326e 0d3d bdc2 22be
00000150: e597 923d 2a5d ab3e 3a09 e3bd a602 273e
00000160: e028 4d3e fe39 8a3e 23c8 f63e 56e6 02be
00000170: 7301 e63e c9a2 283f a4ae 953e a3ce 923e
00000180: 1bb1 003f e709 ecbe d684 deba 05ff 4dbe
00000190: d1cd 3b3e 564b 983e 25e7 e73e 36e5 c8bd
000001a0: 1a4a ff3b c1e1 dbbd e0f1 a73e 255f 28be
000001b0: 83b0 6bbe c401 943e 88dc 3c3c 111c c5be
000001c0: 68a3 9b3e 0b08 a43d 3a06 a73e 3623 023f
000001d0: f0f6 933e f074 5d3e 4033 c8bd ff2b fd3e
000001e0: 8857 ea3e 8509 50bd ebf5 c43e 66fb ee3e
000001f0: b19c 8f3e 525f c5bd 7057 3cbb 5e36 41be
00000200: 6206 013f a6db 833e 9f6d af3e 66a6 1c3e
00000210: 460a b9be 4753 fa3e 36ef e6bc c70d 7ebe
00000220: 01e1 79be a353 f0be 3c13 ca3e 89c8 07be
00000230: b7d4 9ebe eac0 1ebe 2ff1 213c 2dc7 bebe
00000240: 5abd 19bf 952f 363f d9bc 023b 04f8 da3e
00000250: ed35 673e ed0f c93e 77ed e53e 8f0e 8abd
00000260: 95b8 3abe 273a 023f 2734 163f 9114 04be
00000270: 2152 2d3e fe0a b33d 4327 d63d c2dc 4abd
00000280: f823 8fbd d444 ae3e 880c e6bd 8112 e1bd
00000290: 9b4d 873c 7e76 d8be fb16 363e 0349 bcbe
000002a0: 857a fabd c10e 4bbe 4040 693d b143 a03e
000002b0: f918 82bd 9fb3 173f 36e7 763e 857b 2f3e
000002c0: 195c a5bd b682 983e ea80 2b3e ee5f 01be
000002d0: 68a9 0e3f 4293 8f3e 1ab3 bbbd 9874 893d
000002e0: 6968 093f 82fd f53d a41f 083f 5d6c fa3e
000002f0: 833c 323d 39fb 1c3e 38d9 aebe d990 f0ba
00000300: 2970 673d 10b5 77be 013c 8d3d f154 14be
00000310: 3f3e 83be dedf af3e 6e00 133f f299 c4bd
00000320: e492 3bbe 47d0 d23e 6f27 1f3e 98eb 65be
00000330: 560f 3cbe a8b2 753e ec98 7c3e 7999 163e
00000340: 70dc 203d f8ec c7bd 71fe abbe ba6f 3e3e
00000350: d0cf 11bd 81b0 13be c35e cb3d d46a ca3e
00000360: 75be 813e c22e f23c 9f27 c6bd e403 10bd
00000370: 9a10 fc3d e9f7 20be 30fb fd3e 235b b9bd
00000380: 230c 733e 82ec 62be d76d 263e be3d 963d
00000390: 0b14 cebe 0d2c d53e cd63 883e c2fd 8e3e
000003a0: 4cf4 363e c62d 3f3e 9a08 21be 2185 473e
000003b0: a5d9 993d 7d1c 9e3e 2287 c33e 47b5 323e
000003c0: bd0a 88bd 3077 903e 85e8 853e 6fa9 c03e
000003d0: e23e a6bd 8ad2 eabb 013b acbd 261b 043e
000003e0: 410f 073f 1b0e 903e 7e8d a73e 6182 5c3e
000003f0: 8912 173f 02cd 2bbe b44a b43d ed77 1dbe

fc2.weight f4 [288, 576]
-0.32429802 -0.049052 0.007588992 0.037534308 -0.017130407 -0.030605527 -0.006508703 0.1737398
-0.16364539 -0.26235595 -0.09358874 -0.03083464 -0.028924834 0.031518005 0.010662952 -0.096903324
0.051368743 0.08547988 -0.0030668357 0.021218171 0.020178886 0.10202762 0.08078093 0.115965374
0.038612135 0.03573246 -0.22145799 -0.077822424 -0.19825675 0.24719039 -0.6649716 0.063685626
-0.20176674 -0.016951585 0.24795417 0.044707987 -0.15763572 0.063450836 0.100700356 -0.15654993
0.17114012 0.01670137 0.05165238 -0.0025494257 -0.1768275 0.19645217 -0.115838945 -0.2319141
-0.06918116 0.021741778 0.033896834 -0.03386254 -0.09795562 0.013059334 -0.23437065 0.031508062
-0.61972594 -0.09359182 0.350303 0.14288868 0.030819226 -0.008629721 0.14797871 0.16890962
0.19603111 -0.023107199 0.016023198 -0.30123025 -0.10313226 0.0070132012 -0.2510838 0.0014187067
0.080317006 -0.09109535 0.24710058 0.082733355 -0.2518551 0.22098762 0.12965855 -0.18336596
0.034120377 -0.1898713 -0.016783772 0.18806782 -0.049036667 -0.09734945 0.08214612 0.0069886195
0.18673655 -0.07437064 0.15577559 0.1676115 0.052295003 0.0810321 -0.054931797 0.08729598
0.046234414 -0.058657296 -0.09087971 -0.19055596 0.052958746 0.04217504 -0.0005093791 0.013194654
0.25804925 -0.28202066 -0.21945556 0.068211146 -0.04289207 0.18620229 -0.090685256 0.17438564
-0.116519146 -0.07656904 -0.052533064 0.06704301 -0.09082378 -0.054398138 0.23103225 0.040199775
0.09068583 -0.077022016 -0.12905966 -0.1345376 -0.2372429 -0.021078272 -0.14119749 -0.52907926
0.010301194 0.03600077 -0.1045306 0.2099445 0.046713576 0.09608588 -0.26233548 0.090873025
-0.3862276 -0.17644484 -0.11709124 -0.49653918 -0.119691566 -0.44152412 -0.78971165 0.09454717
-0.33567306 -0.047006413 -1.732981 0.037350357 -0.0823623 0.12058 0.08336357 -0.1129063
-0.28930533 0.01728029 -0.065523334 -0.11739018 0.08042632 -0.5353028 -0.45019752 0.10405649
0.56112295 0.0019474347 0.09500618 0.21031046 -0.4424339 -0.35030887 -0.104440965 -0.29919994
0.10726949 0.05082625 0.06455816 -0.10868273 -0.20792913 0.05336409 0.022615418 -0.055990417
-0.016576596 -0.0031991415 -0.2300251 -0.096623935 0.032719724 0.08812984 0.24036112 0.038569268
0.06332693 0.040063985 0.011313975 0.13683866 -0.4992119 0.5643839 -0.24676941 -1.0250118
-0.47637263 -0.30783272 -0.08595281 -0.9972316 -0.16155353 -0.1564579 -0.10601124 0.08054762
0.49983412 -0.21118343 -0.12458231 -0.4327066 0.024324318 0.21914779 0.027697392 -0.07163616
-0.09652655 0.1447404 -0.06634483 -0.10799107 -0.018120233 0.21037038 -0.0069271238 -0.10376755
-0.032526102 -0.6207888 0.19140032 0.08482429 0.22671515 0.39224008 0.039603923 -0.095578745
-0.14243415 -0.032838784 0.08805466 0.031836025 -0.456733 0.0656185 0.028371979 0.045600988
-0.36280856 -0.13139184 0.3060853 0.23254225 -0.074981794 -0.07057793 -0.057962053 -0.11830378
0.059576225 0.008026992 0.025856031 -0.23766957 0.14469373 0.1316292 -0.21779619 0.3500058
0.04955206 0.1709505 0.13471925 0.28666097 -0.07988588 -0.11254369 -0.06773197 -0.8710597
00000000: 640a a6be c0ea 48bd 14ad f83b 93bd 193d
00000010: 1155 8cbc 71b8 fabc f546 d5bb d9e8 313e
00000020: a892 27be 8553 86be 74ab bfbd ed98 fcbc
00000030: c6f3 ecbc 0619 013d aab3 2e3c 4075 c6bd
00000040: 0868 523d 1310 af3d f7fc 48bb bbd1 ad3c
00000050: 314e a53c dbf3 d03d 7970 a53d 417f ed3d
00000060: c227 1e3d 335c 123d e2c5 62be 5d61 9fbd
00000070: d103 4bbe 7a1f 7d3e 943b 2abf 9c6d 823d
00000080: f19b 4ebe 0dde 8abc b3e7 7d3e b91f 373d
00000090: 426b 21be 83f2 813d fd3b ce3d a04e 20be
000000a0: 5b3f 2f3e 50d1 883c 7291 533d 4414 27bb
000000b0: 4512 35be c22a 493e f83c edbd e47a 6dbe
000000c0: daae 8dbd d01b b23c 68d7 0a3d 72b3 0abd
000000d0: f59c c8bd d1f6 553c dcfe 6fbe 990e 013d
000000e0: 5ca6 1ebf 11ad bfbd ea5a b33e 6951 123e
000000f0: 9a78 fc3c ac63 0dbc bb87 173e a5f6 2c3e
00000100: 61bc 483e 4f4b bdbc 1543 833c da3a 9abe
00000110: 0237 d3bd ffce e53b 0e8e 80be e6f3 b93a
00000120: 3e7d a43d 3390 babd ef07 7d3e 1b70 a93d
00000130: 27f3 80be 944a 623e 36c5 043e 49c4 3bbe
00000140: cfc1 0b3d 9f6d 42be 1f7e 89bc da94 403e
00000150: acda 48bd 265f c7bd 3a3c a83d ca00 e53b
00000160: de37 3f3e a24f 98bd a383 1f3e 59a2 2b3e
00000170: 4933 563d 28f4 a53d 2a00 61bd 3cc8 b23d
00000180: 4c60 3d3d a242 70bd 241f babd 1a21 43be
00000190: 45eb 583d bcbf 2c3d da87 05ba 642e 583c
000001a0: 081f 843e 0365 90be f5b8 60be 49b2 8b3d
000001b0: 98af 2fbd d0ab 3e3e 31b9 b9bd 2692 323e
000001c0: 97a1 eebd 3bd0 9cbd e92c 57bd d84d 893d
000001d0: d101 babd 95d0 5ebd b893 6c3e 85a8 243d
000001e0: 7eb9 b93d b8bd 9dbd 3728 04be 3ac4 09be
000001f0: ceef 72be 57ac acbc 1396 10be bd71 07bf
00000200: 57c6 283c 8b75 133d 2414 d6bd b1fb 563e
00000210: bc56 3f3d adc8 c43d d650 86be a31b ba3d
00000220: a0bf c5be f5ad 34be 88cd efbd 623a febe
00000230: da20 f5bd 730f e2be 8b2a 4abf f2a1 c13d
00000240: 57dd abbe cc89 40bd 52d2 ddbf b0fc 183d
00000250: 91ad a8bd a6f2 f63d 85ba aa3d 6b3b e7bd
00000260: d41f 94be 658f 8d3c 1931 86bd 436a f0bd
00000270: 8eb6 a43d 9b09 09bf 4a80 e6be 921b d53d
00000280: c1a5 0f3f 1141 ff3a 9a92 c23d a05b 573e
00000290: b286 e2be af5b b3be 25e5 d5bd bc30 99be
000002a0: 1bb0 db3d 302f 503d 1237 843d 0d95 debd
000002b0: 60eb 54be 4e94 5a3d f843 b93c 3556 65bd
000002c0: a4cb 87bc b0a8 51bb b38b 6bbe c5e2 c5bd
000002d0: 1e05 063d 6b7d b43d 3a21 763e cffa 1d3d
000002e0: 8db1 813d 221a 243d 405e 393c 6f1f 0c3e
000002f0: b498 ffbe 777b 103f 1fb1 7cbe 9633 83bf
00000300: 1de7 f3be 409c 9dbe 0708 b0bd 924a 7fbf
00000310: 4a6e 25be 8036 20be 6c1c d9bd 27f6 a43d
00000320: 42ea ff3e 7840 58be 0325 ffbd b88b ddbe
00000330: cb43 c73c 4768 603e a4e5 e23c fbb5 92bd
00000340: b6af c5bd d436 143e ccdf 87bd 6c2a ddbd
00000350: e270 94bc 556b 573e edfc e2bb 1584 d4bd
00000360: 173a 05bd 04ec 1ebf 72fe 433e 5bb8 ad3d
00000370: 0428 683e b1d3 c83e b937 223d cabe c3bd
00000380: 42da 11be f681 06bd 0056 b43d 7e66 023d
00000390: e8d8 e9be fe62 863d 5a6c e83c 1ac8 3a3d
000003a0: 0bc2 b9be 958b 06be 36b7 9c3e 8e1f 6e3e
000003b0: 0e90 99bd 298b 90bd 9e69 6dbd 4149 f2bd
000003c0: 3306 743d a583 033c 07d0 d33c a75f 73be
000003d0: 982a 143e cec9 063e f705 5fbe f633 b33e
000003e0: 1af7 4a3d a60d 2f3e d8f3 093e 3ac5 923e
000003f0: 359b a3bd 4e7d e6bd 0fb7 8abd c5fd 5ebf

fc2.bias f4 [288]
0.039468054 -0.03836747 0.041404907 -0.028173266 0.11312859 0.08636718 0.07043272 0.022025036
0.053905997 0.06293604 0.12824956 0.0031174612 -0.04351708 0.1180322 0.013228575 0.056232017
0.019954324 -0.0027319 0.077771224 0.023379954 0.055483058 0.10416928 0.02057671 0.09612044
0.063182205 0.059200525 -0.011726632 0.069891825 0.017260728 0.0189567 0.052679032 0.11461289
0.09538717 0.08462166 0.110118054 0.058081917 0.08522155 0.05159519 -0.041057665 0.07371977
0.029116476 0.019841382 0.09440033 0.00859726 0.08896826 0.020938553 -0.0074397055 0.012292316
0.017083421 -0.1613939 0.038087152 -0.04347251 0.07025577 0.026765602 -0.02597308 0.14262159
0.049364526 0.012601044 -0.02218074 -0.006208536 0.002644064 0.09836828 -0.1280062 -0.02951734
0.005462198 0.13879773 0.0027844964 0.039909657 -0.061862107 0.03178168 -0.103054896 0.0302967
0.032201275 0.07680995 0.066395044 0.11163793 0.010370406 0.1272687 -0.032646514 0.013535823
-0.04021553 -0.24265578 0.03000707 -0.042846307 0.054396126 0.1213163 0.098551564 0.00083845266
0.06598085 0.049787045 0.034772508 0.08683307 -0.039403606 0.08821513 -0.25760782 0.100539014
0.048946287 0.07433956 0.021097546 -0.032521665 0.0033038184 0.41583952 0.051658202 0.041919354
0.13066491 -0.22545463 0.011684 0.10846609 0.09228353 0.001279837 0.03281602 -0.15874204
-0.001440099 0.039892882 0.03325606 -0.11041999 0.106433876 -0.022363251 0.25642052 -0.027503029
0.10144829 -0.026478823 0.32746094 0.023292726 0.016602721 0.058348656 -0.016818486 -0.0024597768
0.08699675 -0.02199149 0.011067864 -0.0030147473 0.028726488 0.116318755 0.060893316 0.13154598
-0.0008264841 0.028784906 0.09454185 0.024020404 -0.037288588 -0.019697124 0.06504244 0.038102638
0.0443687 0.043011554 -0.07430636 0.2676827 -0.024263648 0.0322937 0.012317205 0.003557332
-0.18056345 0.007818138 0.041644223 0.061922144 0.123106904 0.040192008 0.05899192 0.055540252
0.028255107 0.027780494 0.059998266 0.03164772 0.076214105 -0.028902298 0.06314969 0.06803009
-0.025510993 0.00047939966 -0.021987984 0.08874945 0.001213098 -0.0044773864 0.028990583 -0.03537993
-0.035239976 0.053784426 0.0622537 0.012192435 0.005750068 0.008583243 0.11300488 -0.019687237
0.07315105 0.06392555 0.079132594 0.055466574 0.021288617 0.28104228 -0.12076912 0.006592728
0.00368644 0.06612916 0.029924564 0.04932569 -0.029279688 0.017182376 0.021663714 0.051275022
0.033880737 0.03232 0.23384525 -0.10659105 0.105461404 0.00083016785 -0.013178939 0.05051056
-0.013392076 -0.028170297 0.051288575 -0.02596418 0.031130318 -0.03537234 0.027564943 0.05724745
0.06698745 0.0676125 -0.10552148 -0.03476795 0.0657792 0.052289 -0.1942085 0.10051723
0.087683454 0.10223902 0.04662303 0.08691196 0.037089102 0.12086983 0.053292904 0.028099235
0.0046830727 -0.02010961 0.2912732 0.101834536 0.09396799 0.011665369 0.09083207 -0.01821602
0.068093605 0.0075627733 0.07738542 0.039276283 0.049268354 0.07951255 0.13060178 -0.022353515
-0.045301158 0.04085171 -0.0013662233 0.042408373 -0.034133814 -0.00726794 0.040037632 0.09250324
00000000: 41a9 213d 3527 1dbd 3198 293d 9fcb e6bc
00000010: f6af e73d 47e1 b03d 083f 903d d96d b43c
00000020: 89cc 5c3d 9ce4 803d da53 033e 524e 4c3b
00000030: f73e 32bd deba f13d aabc 583c 8b53 663d
00000040: 4077 a33c ad09 33bb 8546 9f3d 5187 bf3c
00000050: 3442 633d b456 d53d 7d90 a83c cbda c43d
00000060: ac65 813d 407c 723d 0f21 40bc 7223 8f3d
00000070: 5f66 8d3c 154b 9b3c f8c5 573d 2aba ea3d
00000080: 595a c33d 1f4e ad3d 9385 e13d 4ee7 6d3d
00000090: a388 ae3d 7a55 533d 152c 28bd 64fa 963d
000000a0: ad85 ee3c 658a a23c f654 c13d 86db 0c3c
000000b0: fe34 b63d 5487 ab3c c6c8 f3bb b665 493c
000000c0: 88f2 8b3c 7144 25be 4601 1c3d 3b10 32bd
000000d0: 42e2 8f3d 8943 db3c 7fc5 d4bc 650b 123e
000000e0: 7532 4a3d 9c74 4e3c 62b4 b5bc fa70 cbbb
000000f0: 0848 2d3b 4f75 c93d 0f14 03be 59ce f1bc
00000100: 3dfc b23b fe20 0e3e 197c 363b 4f78 233d
00000110: 1f63 7dbd 822d 023d 720e d3bd c930 f83c
00000120: 7ce5 033d 894e 9d3d 20fa 873d 6da2 e43d
00000130: a3e8 293c ba52 023e 5ab8 05bd 5bc5 5d3c
00000140: 0ab9 24bd c27a 78be 63d1 f53c 9c7f 2fbd
00000150: 79ce 5e3d ae74 f83d 67d5 c93d 9bcb 5b3a
00000160: f820 873d 80ed 4b3d 9e6d 0e3d 89d5 b13d
00000170: ad65 21bd 22aa b43d 2ce5 83be 66e7 cd3d
00000180: e77b 483d 573f 983d c3d4 ac3c 7035 05bd
00000190: e084 583b ebe8 d43e 8d97 533d a1b3 2b3d
000001a0: 06cd 053e 94dd 66be 3f6e 3f3c 7823 de3d
000001b0: 26ff bc3d 34c0 a73a 176a 063d 468d 22be
000001c0: b4c1 bcba b866 233d 8237 083d e023 e2bd
000001d0: 01fa d93d 2333 b7bc 8d49 833e 084e e1bc
000001e0: 1fc4 cf3d 1eea d8bc f6a8 a73e 63d0 be3c
000001f0: 6e02 883c 00ff 6e3d ecc6 89bc 3534 21bb
00000200: 5a2b b23d 7f27 b4bc fc55 353c 1193 45bb
00000210: d053 eb3c 8738 ee3d 456b 793d fdb3 063e
00000220: 69a8 58ba 53ce eb3c 289f c13d 70c6 c43c
00000230: ebbb 18bd dd5b a1bc f934 853d 8311 1c3d
00000240: f4bb 353d e22c 303d ef2d 98bd b50d 893e
00000250: 8fc4 c6bc 6646 043d 1ace 493c 2122 693b
00000260: a0e5 38be a617 003c 2293 2a3d 13a2 7d3d
00000270: 791f fc3d 60a0 243d 83a1 713d 2d7e 633d
00000280: 4177 e73c eb93 e33c bec0 753d 0aa1 013d
00000290: 2416 9c3d 83c4 ecbc a054 813d 5c53 8b3d
000002a0: 6efc d0bc ef57 fb39 2520 b4bc 46c2 b53d
000002b0: d000 9f3a 0ab7 92bb a97d ed3c 8cea 10bd
000002c0: cb57 10bd 0f4d 5c3d bcfd 7e3d c7c2 473c
000002d0: 116b bc3b bba0 0c3c 1a6f e73d 2147 a1bc
000002e0: 38d0 953d 66eb 823d 4510 a23d eb30 633d
000002f0: 7765 ae3c c6e4 8f3e cd55 f7bd d007 d83b
00000300: 3398 713b ba6e 873d 5c24 f53c bc09 4a3d
00000310: f5db efbc 0ec2 8c3c 1a78 b13c c205 523d
00000320: 87c6 0a3d fa61 043d 2175 6f3e 694c dabd
00000330: 26fc d73d 9f9f 593a 7aec 57bc 29e4 4e3d
00000340: 706a 5bbc 65c5 e6bc f813 523d d5b2 d4bc
00000350: 0205 ff3c 96e2 10bd e0cf e13c 4d7c 6a3d
00000360: b730 893d 6c78 8a3d a51b d8bd d768 0ebd
00000370: 3fb7 863d fe2c 563d 98de 46be fadb cd3d
00000380: 6293 b33d b162 d13d caf7 3e3d e6fe b13d
00000390: beea 173d 9a8a f73d a949 5a3d 5e30 e63c
000003a0: 7674 993b e9bc a4bc c321 953e a08e d03d
000003b0: 4a72 c03d 1b20 3f3c 2a06 ba3d c339 95bc
000003c0: a974 8b3d 24d1 f73b 3f7c 9e3d 2be0 203d
000003d0: 9dcd 493d 7ad7 a23d 79bc 053e b81e b7bc
000003e0: b58d 39bd 1f54 273d d912 b3ba 67b4 2d3d
000003f0: e6cf 0bbd e627 eebb 80fe 233d 5772 bd3d

fc3.weight f4 [144, 288]
0.04780754 0.007760141 0.058098357 0.024386827 -0.024526544 -0.032297343 0.04726361 -0.023572963
0.024744917 -0.04182385 -0.00967221 0.021983553 0.018352192 0.03733636 -0.050461903 0.0445677
0.007531848 0.051456925 0.05202577 -0.014598854 -0.02922046 -0.0022242665 0.044985246 0.017071623
0.010551151 0.0571358 0.010225136 -0.0063089393 0.0075210296 0.04601716 0.033120494 0.011345591
-0.049742047 0.040894937 -0.0012396313 -0.025448184 -0.052607697 -0.0010686107 0.042999227 -0.020337217
-0.0052639507 -0.04095837 -0.0024402663 -0.031469733 0.015810732 -0.051189933 -0.023935609 -0.004507892
0.009711999 0.024556074 -0.021183968 -0.004247617 -0.053514116 0.0026190616 0.011007819 0.027633969
0.034731556 -0.0108088255 0.033044416 -0.052775335 -0.0020497479 0.03700084 -0.04210159 -0.015134301
-0.046458 0.034917567 -0.050180145 -0.042645335 -0.028492674 0.0450429 0.01698165 0.014168661
-0.016821187 -0.033059105 -0.00050545856 -0.02145214 0.054862205 -0.022347074 0.0061158724 -0.05148766
0.017380927 -0.034797877 -0.029908283 0.006654147 -0.043870527 0.008816492 0.0107254945 0.0023435056
0.048672665 0.0253903 -0.026981689 0.0046640374 -0.0114268325 -0.0041720867 -0.0079264045 0.041024018
-0.0432183 -0.03428287 0.010401998 -0.010139849 0.035559412 0.03796803 -0.0020201392 0.046850305
0.01797222 0.018399972 0.013764922 0.052082 0.017686617 0.007467348 0.02219231 0.008720424
-0.008319352 0.0058971085 -0.020990688 0.034987334 -0.05089678 0.013864081 0.050736148 0.0028140321
-0.014503967 -0.0016310401 -0.0051389523 0.029063437 -0.023048382 0.021941703 0.007182952 0.05755068
0.015254077 -0.0128658675 0.0041995384 0.006175179 -0.043145306 0.048844304 0.019114908 -0.010142576
-0.0006591119 -0.021083027 0.01449677 -0.037725125 0.050622504 -0.0192816 -0.030013628 0.04518045
0.03596409 0.057178754 -0.035954162 -0.048792727 0.01740272 -0.04164698 0.055218372 -0.052013405
0.00018938631 -0.006967921 0.0071053915 -0.05015777 0.017577965 -0.034125417 0.048194785 0.024736699
0.009949949 -0.0058377236 -0.008635238 -0.025112342 0.029648226 -0.04087808 0.055661697 -0.01943779
-0.02778484 -0.012144987 0.0007902868 -0.042359896 0.02379572 -0.018828422 -0.053793836 0.047047045
-0.021424402 -0.011075903 0.024841513 0.03865912 -0.011658359 0.02856179 0.016931433 0.052948695
-0.008307986 0.018281762 -0.0068281814 -0.01666475 -0.014864631 0.054482084 0.051994864 0.023897823
-0.026331533 -0.03516321 -0.030697918 -0.051835384 0.039407242 -0.036461733 -0.016769283 0.040450145
0.016462158 0.028644416 0.029457968 -0.024163812 -0.0076225884 0.027723502 -0.049010906 -0.0126650445
-0.05376295 -0.00769569 0.029766168 -0.052590366 -0.037714347 -0.0055327304 0.024775859 0.01529428
0.01671977 0.051860083 0.042602297 0.050686415 0.052396353 -0.00017657503 0.05563887 0.02769697
0.031353597 0.025558006 0.029578906 0.031070907 0.021217737 0.017575268 0.010433938 -0.0013309009
0.017326023 0.031963337 0.022010077 -0.04541972 0.032035287 0.055057246 -0.009196471 0.0028736554
-0.053912066 -0.016576834 0.052930955 0.0135766305 0.03959116 0.031384703 0.019476715 0.05569687
-0.019547217 0.048919324 0.014330354 -0.033151597 0.026934933 0.046490993 0.0022095628 0.023195516
00000000: d7d1 433d c848 fe3b 8bf8 6d3d e2c6 c73c
00000010: e4eb c8bc 384a 04bd 7d97 413d 161c c1bc
00000020: dab5 ca3c 7c4f 2bbd 3078 1ebc da16 b43c
00000030: 5657 963c 03ee 183d 24b1 4ebd 9f8c 363d
00000040: b8cd f63b 7fc4 523d f918 553d 0830 6fbc
00000050: bf5f efbc 00c5 11bb 7342 383d cad9 8b3c
00000060: bcde 2c3c 3b07 6a3d 5487 273c 38bb cebb
00000070: f872 f63b 7d7c 3c3d 5ba9 073d dce2 393c
00000080: 51be 4bbd 7381 273d 207b a2ba b678 d0bc
00000090: 2b7b 57bd a010 8cba f51f 303d 3c9a a6bc
000000a0: 387d acbb f7c3 27bd e0ec 1fbb 68e6 00bd
000000b0: 8285 813c 89ac 51bd 9c14 c4bc f0b6 93bb
000000c0: 141f 1f3c d229 c93c 008a adbc 982f 8bbb
000000d0: 9e31 5bbd 90a4 2b3b 245a 343c a260 e23c
000000e0: ad42 0e3d 8017 31bc 9559 073d f32a 58bd
000000f0: 1055 06bb 318e 173d b872 2cbd dcf5 77bc
00000100: be4a 3ebd b905 0f3d b289 4dbd e0ac 2ebd
00000110: 7869 e9bc e77e 383d 1a1d 8b3c ac23 683c
00000120: 96cc 89bc fc68 07bd c080 04ba 66bc afbc
00000130: 31b7 603d 3611 b7bc a867 c83b b9e4 52bd
00000140: 7262 8e3c 3888 0ebd 3702 f5bc 080b da3b
00000150: 95b1 33bd 0c73 103c fcb9 2f3c 8095 193b
00000160: fd5c 473d 52ff cf3c b408 ddbc c8d4 983b
00000170: 9c37 3bbc 00b6 88bb c0dd 01bc cd08 283d
00000180: ac05 31bd 326c 0cbd 246d 2a3c 9c21 26bc
00000190: bfa6 113d 5d84 1b3d 5064 04bb 1be6 3f3d
000001a0: 7a3a 933c 8abb 963c 4486 613c ef53 553d
000001b0: 86e3 903c a8b0 f43b a6cc b53c 1ce0 0e3c
000001c0: e44d 08bc 883c c13b aaf4 abbc e14e 0f3d
000001d0: 2479 50bd 2c26 633c b5d0 4f3d a06b 383b
000001e0: 0ca2 6dbc a0c8 d5ba a864 a8bb 7216 ee3c
000001f0: f6cf bcbc 16bf b33c f85e eb3b 43ba 6b3d
00000200: 3cec 793c 5ccb 52bc 489c 893b 2859 ca3b
00000210: 22b9 30bd f710 483d de96 9c3c 0c2d 26bc
00000220: 40c8 2cba 50b6 acbc dc83 6d3c a985 1abd
00000230: 8b59 4f3d 72f4 9dbc 24df f5bc 230f 393d
00000240: 154f 133d 4534 6a3d ac44 13bd e2da 47bd
00000250: 2690 8e3c 0696 2abd a92c 623d 020c 55bd
00000260: 0096 4639 2853 e4bb 58d4 e83b 3c72 4dbd
00000270: aaff 8f3c 18c7 0bbd e567 453d 9ea4 ca3c
00000280: 1c05 233c 604a bfbb d07a 0dbc 66b8 cdbc
00000290: d6e0 f23c c66f 27bd 85fd 633d 003c 9fbc
000002a0: 089d e3bc c4fb 46bc 402b 4f3a 9281 2dbd
000002b0: 3eef c23c 103e 9abc ed56 5cbd 67b4 403d
000002c0: 3a82 afbc b477 35bc 6e80 cb3c 0759 1e3d
000002d0: b402 3fbc 6afa e93c cab3 8a3c bbe0 583d
000002e0: 381e 08bc a2c3 953c f0be dfbb 8484 88bc
000002f0: c88a 73bc 9b28 5f3d 91f8 543d 5ec5 c33c
00000300: 3ab5 d7bc 4c07 10bd 337a fbbc 5751 54bd
00000310: 7d69 213d e658 15bd bc5f 89bc 0daf 253d
00000320: a6db 863c b2a7 ea3c d651 f13c 30f3 c5bc
00000330: e8c6 f9bb 661c e33c a9bf 48bd 0c81 4fbc
00000340: 8a36 5cbd 202c fcbb 2ed8 f33c ff68 57bd
00000350: 5c7a 1abd e84b b5bb bef6 ca3c dc94 7a3c
00000360: e6f7 883c 3d6b 543d bf7f 2e3d 8f9c 4f3d
00000370: 8f9d 563d 0027 39b9 95e5 633d c2e4 e23c
00000380: a16c 003d 065f d13c 764f f23c 6a88 fe3c
00000390: d2d0 ad3c 02fa 8f3c 1cf3 2a3c a071 aeba
000003a0: 4eef 8d3c fdeb 023d 7a4e b43c 070a 3abd
000003b0: 6f37 033d b583 613d ccac 16bc f053 3c3b
000003c0: e6d2 5cbd 24cc 87bc 21ce 583d 8470 5e3c
000003d0: 572a 223d 3f8d 003d a28d 9f3c 6722 643d
000003e0: 7c21 a0bc a15f 483d dcc9 6a3c f8c9 07bd
000003f0: a6a6 dc3c 576d 3e3d 50ce 103b 8604 be3c

fc3.bias f4 [144]
-0.016719576 -0.05416056 0.031682987 0.015017536 0.03311329 0.048500624 0.03925718 0.0030026063
-0.055601332 -0.026744783 0.0072197355 -0.040760413 0.027734358 -0.031331256 0.030390989 -0.0061590523
0.00012592599 0.0432836 0.04717802 0.04732131 -0.032012098 0.042873975 0.03742191 0.04203886
-0.05679727 -0.050580777 -0.026084375 -0.057214025 -0.018817674 -0.015719257 -0.056835413 0.020724539
-0.04706998 0.031024467 -0.019558955 -0.042894907 0.04917707 0.02697618 -0.055117816 -0.025385287
0.05225439 -0.002452232 0.058160055 -0.047459472 -0.027193386 -0.034132652 0.056621995 0.01681402
-0.051304318 0.04957186 -0.049878933 0.044560675 0.013642814 -0.0521235 0.043217186 -0.046210106
-0.05700046 0.026979897 0.028723735 -0.033609226 -0.008947376 -0.043608177 -0.042285025 -0.004330218
-0.007092297 -0.021423038 -0.015682012 -0.003957253 -0.054772757 -0.020175915 -0.05707746 0.03912748
0.011419978 0.05816104 0.02353732 0.014085572 0.048425738 -0.015997272 -0.054649044 -0.024057597
0.05841184 0.032347906 -0.036614835 0.013988536 0.03115454 -0.035841323 0.05597811 -0.04037826
0.041142095 0.04567847 -0.041020475 0.045792323 0.00978804 0.014835637 0.05364574 0.007963683
-0.005804464 -0.007530637 0.006551247 0.036608797 -0.046348188 -0.018821124 0.009249862 -0.04896085
-0.0056698173 0.010376621 -0.03255124 0.034373622 0.0545153 0.056699354 0.04023088 0.051667105
0.023870874 0.006480176 -0.049740847 0.010359053 0.013788763 0.041771922 -0.013126515 0.0062914975
0.018319096 0.005764175 0.041947167 0.013125505 -0.043336295 0.007863093 -0.024071645 0.05673037
-0.023604672 -0.047261804 -0.007646948 0.03540392 0.013246167 0.01429211 0.052315507 -0.018323224
-0.057559937 0.021601949 0.01974048 -0.0035498552 -0.03127323 0.014856789 -0.016922794 0.012982246
00000000: 7ef7 88bc 77d7 5dbd 05c6 013d 1c0c 763c
00000010: cda1 073d 97a8 463d 23cc 203d 60c7 443b
00000020: 39be 63bd e017 dbbc 8893 ec3b 64f4 26bd
00000030: 2a33 e33c 3455 00bd 86f6 f83c e0d1 c9bb
00000040: 000b 0439 254a 313d bd3d 413d fdd3 413d
00000050: 1e1f 03bd 9f9c 2f3d b747 193d f130 2c3d
00000060: 41a4 68bd ca2d 4fbd e6ae d5bc 4159 6abd
00000070: 8627 9abc acc5 80bc 40cc 68bd 82c6 a93c
00000080: 74cc 40bd 0627 fe3c 1a3a a0bc 92b2 2fbd
00000090: e56d 493d 26fd dc3c 38c3 61bd cef4 cfbc
000000a0: b308 563d a0b5 20bb 3d39 6e3d dd64 42bd
000000b0: aac4 debc aece 0bbd 77ec 673d 8ebd 893c
000000c0: 7a24 52bd dd0b 4b3d da4d 4cbd 4185 363d
000000d0: 1c86 5f3c 737f 55bd 8104 313d cf46 3dbd
000000e0: 5079 69bd f204 dd3c 0a4e eb3c d4a9 09bd
000000f0: 0498 12bc 7d9e 32bd 1033 2dbd 80e4 8dbb
00000100: 8066 e8bb 5e7f afbc 9077 80bc d8ab 81bb
00000110: 6659 60bd f647 a5bc 0eca 69bd 2344 203d
00000120: dc1a 3b3c 453a 6e3d 56d1 c03c 2cc7 663c
00000130: 115a 463d b60c 83bc add7 5fbd 7014 c5bc
00000140: 4141 6f3d 3d7f 043d 70f9 15bd 2c30 653c
00000150: ce37 ff3c 5ace 12bd 4d49 653d ad63 25bd
00000160: 9d84 283d 5919 3b3d 1605 28bd bb90 3b3d
00000170: 045e 203c 2c11 733c a3bb 5b3d 1c7a 023c
00000180: 6033 bebb 90c3 f6bb d8ab d63b 1bf3 153d
00000190: 99d7 3dbd c22e 9abc bc8c 173c 2c8b 48bd
000001a0: e0c9 b9bb b402 2a3c 7354 05bd 5bcb 0c3d
000001b0: 6f4b 5f3d 953d 683d 23c9 243d e3a0 533d
000001c0: da8c c33c a857 d43b 0fbd 4bbd 04b9 293c
000001d0: 44ea 613c 0919 2b3d 9810 57bc e828 ce3b
000001e0: ee11 963c 68e1 bc3b cbd0 2b3d 5c0c 573c
000001f0: 6681 31bd 34d4 003c e631 c5bc 1b5e 683d
00000200: 965e c1bc 9895 41bd 4093 fabb b303 113d
00000210: 7406 593c 7429 6a3c c948 563d 961a 96bc
00000220: f8c3 6bbd 92f6 b03c cab6 a13c b0a4 68bb
00000230: 5c18 00bd e469 733c aca1 8abc 7cb3 543c

fc4.weight f4 [4, 144]
-0.07313755 0.070647426 -0.0007670149 -0.04164385 0.02643931 -0.027785998 -0.04070404 -0.016793072
0.0023112819 0.003151603 -0.07272645 -0.012403347 0.05434268 -0.073146656 -0.0391061 -0.06936312
-0.026262771 0.070326604 -0.042782824 -0.07960548 -0.007848911 0.05636651 0.06340677 -0.005815476
0.056503512 -0.0068547353 0.014397107 0.050020806 0.08100293 -0.07592805 0.022045858 0.040186882
-0.06339115 -0.035773605 0.055637203 -0.010848351 -0.041735463 -0.004113257 -0.08052896 0.06727838
-0.057293773 0.04168331 0.033707 0.04483924 0.0108779 0.014524855 -0.066731974 -0.023997806
-0.076625876 0.034133874 -0.00080913305 0.030587308 0.07497469 -0.0452065 -0.058426958 0.013678126
-0.07758674 0.048842914 -0.06896436 0.049006768 -0.008893706 0.072064735 0.056597196 0.07259644
-0.08117181 -0.06910114 0.081380405 -0.0705701 0.013794117 -0.018306963 -0.021727663 0.019388892
0.021135367 -0.033372104 -0.061908036 0.039215557 -0.0112243965 -0.013653517 -0.017136388 0.07808889
0.08330277 0.027472876 0.076354824 0.043262742 -0.07804792 -0.03734445 -0.032995254 0.014353447
0.05149836 -0.029444508 -0.05568899 0.0382483 -0.023365151 0.04736633 -0.052358996 0.001989223
0.041162215 -0.07601103 0.049433716 0.008117229 -0.012280792 -0.079998486 -0.014293127 0.016825266
-0.07758048 0.035705246 -0.020914983 -0.029813945 -0.048228156 -0.06543943 0.07626698 0.043258153
-0.029482752 0.017454006 0.07526339 -0.07682207 -0.059740126 -0.07095638 -0.022461694 0.04715296
-0.06455606 0.06385297 -0.03250158 0.055536367 -0.014563687 -0.0475399 0.04063698 0.05540449
0.027774565 0.008884519 -0.036201548 -0.049552392 0.05250909 -0.015255094 -0.055858463 0.0617856
-0.0826913 0.054072194 0.005035363 -0.03741443 0.039525457 -0.056979448 -0.033508264 0.023581594
-0.014014952 -0.05098983 0.032773696 0.045859583 0.065581284 -0.058635384 0.04280425 0.007741876
0.008893676 0.08172489 0.025495537 0.0016928613 -0.0065060332 -0.016699225 -0.052862756 0.03086958
-0.026311278 -0.06579685 -0.037089974 -0.044367336 -0.0631562 -0.06787859 0.052077033 -0.06559643
0.011191465 0.0051257685 -0.044734657 -0.0020243824 -0.01477664 0.00793016 -0.06602043 0.022996329
0.0725236 -0.05502987 0.06005589 -0.0057862923 0.06619016 0.0785873 -0.018055826 0.0005906746
0.04819434 -0.0028687492 -0.045913696 0.046740375 0.082591735 -0.082356915 0.015337251 0.045363702
-0.07288323 -0.039215647 -0.07607517 0.023296483 0.009781711 -0.051681034 -0.0717815 0.0078009367
0.07174478 -0.07054745 -0.073244296 -0.033434015 0.08005967 -0.016299613 0.053395607 -0.011730671
-0.06605221 0.017077506 0.073490836 0.03371346 -0.009566009 -0.06566933 -0.08306655 0.041570865
0.060193487 -0.07474076 -0.07803479 0.044546403 0.048774533 -0.036626212 0.027310275 0.03770516
0.049257644 0.05509723 -0.01960399 -0.06890595 -0.0718865 0.005168803 0.04846189 -0.032088995
-0.008687086 -0.05723706 -0.0026970878 0.015381329 0.07017975 0.07086808 -0.049891155 0.06265048
0.04057338 -0.0685557 0.040238224 -0.045101933 0.013308547 0.05631616 0.041355856 0.053536125
-0.044784736 -0.024628006 -0.015726529 0.048784308 -0.020820148 -0.022615187 -0.06401431 0.028164573
00000000: 24c9 95bd 99af 903d 8011 49ba be92 2abd
00000010: 4097 d83c 769f e3bc 48b9 26bd a091 89bc
00000020: e078 173b 208b 4e3b 9bf1 94bd 6837 4bbc
00000030: 6e96 5e3d eacd 95bd b82d 20bd 400e 8ebd
00000040: 0625 d7bc 6507 903d 0b3d 2fbd 3308 a3bd
00000050: b898 00bc 92e0 663d 69db 813d c08f bebb
00000060: 3a70 673d b09d e0bb d8e1 6b3c 9ee2 4c3d
00000070: dde4 a53d 2a80 9bbd 8499 b43c 009b 243d
00000080: 38d3 81bd 5887 12bd d6e3 633d 48bd 31bc
00000090: cef2 2abd 80c8 86bb 5eec a4bd 3fc9 893d
000000a0: e0ac 6abd 1ebc 2a3d 5a10 0a3d 5aa9 373d
000000b0: 3839 323c a8f9 6d3c c6aa 88bd 0c97 c4bc
000000c0: 07ee 9cbd f6cf 0b3d 001c 54ba 3c92 fa3c
000000d0: 558c 993d 732a 39bd 1b51 6fbd 381a 603c
000000e0: cce5 9ebd 820f 483d 303d 8dbd 52bb 483d
000000f0: e8b6 11bc ad96 933d 76d2 673d 71ad 943d
00000100: 683d a6bd e684 8dbd c5aa a63d 0e87 90bd
00000110: b800 623c 7cf8 95bc 36fe b1bc 74d5 9e3c
00000120: 1424 ad3c 30b1 08bd 4893 7dbd 7ea0 203d
00000130: 88e6 37bc 00b3 5fbc 9c61 8cbc 11ed 9f3d
00000140: a59a aa3d cc0e e13c eb5f 9c3d 4634 313d
00000150: 96d7 9fbd 7ef6 18bd 0826 07bd b82a 6b3c
00000160: f2ef 523d 9c35 f1bc 231a 64bd 40aa 1c3d
00000170: 4668 bfbc 3203 423d 6376 56bd a05d 023b
00000180: b699 283d acab 9bbd 027b 4a3d 20fe 043c
00000190: 6035 49bc 3fd6 a3bd b82d 6abc 24d5 893c
000001a0: 84e2 9ebd aa3f 123d e655 abbc 603c f4bc
000001b0: e38a 45bd 1c05 86bd dd31 9c3d 762f 313d
000001c0: d085 f1bc b4fb 8e3c b123 9a3d e454 9dbd
000001d0: 10b2 74bd 9451 91bd 9601 b8bc 7623 413d
000001e0: f835 84bd 59c5 823d 6020 05bd 1a7a 633d
000001f0: 889c 6ebc 33b9 42bd f672 263d d2ef 623d
00000200: 7c87 e33c 6090 113c 1348 14bd 73f7 4abd
00000210: c613 573d 80f0 79bc d8cb 64bd e612 7d3d
00000220: 0e5a a9bd ce7a 5d3d b0ff a43b e03f 19bd
00000230: 72e5 213d 4863 69bd f63f 09bd 302e c13c
00000240: f89e 65bc b6da 50bd b63d 063d 42d7 3b3d
00000250: 7b4f 863d a82b 70bd 8253 2f3d 90af fd3b
00000260: c8b6 113c 615f a73d 04dc d03c 00e3 dd3a
00000270: 9030 d5bb d0cc 88bc 9e86 58bd 34e2 fc3c
00000280: c08a d7bc 80c0 86bd a8eb 17bd 86ba 35bd
00000290: 0a58 81bd ee03 8bbd ba4e 553d 6c57 86bd
000002a0: 685c 373c 10f6 a73b b03b 37bd 80ab 04bb
000002b0: b819 72bc 80ed 013c b835 87bd cc62 bc3c
000002c0: 4187 943d 0067 61bd 2afd 753d f09a bdbb
000002d0: b58e 873d 61f2 a03d d0e9 93bc 80d7 1a3a
000002e0: 6e67 453d a001 3cbb 0010 3cbd d672 3f3d
000002f0: db25 a93d beaa a8bd 1849 7b3c 4acf 393d
00000300: ce43 95bd 96a0 20bd 4ccd 9bbd 44d8 be3c
00000310: 7843 203c 7eaf 53bd 2e02 93bd 009f ff3b
00000320: edee 923d 2e7b 90bd 1b01 96bd 1bf2 08bd
00000330: 53f6 a33d c486 85bc 5ab5 5a3d 0032 40bc
00000340: 6246 87bd 20e6 8b3c 5d82 963d 2017 0a3d
00000350: c0ba 1cbc a47d 86bd cc1e aabd 3646 2a3d
00000360: 728d 763d af11 99bd b4d0 9fbd 4a76 363d
00000370: cec7 473d 5e05 16bd ccb9 df3c ba70 1a3d
00000380: 62c2 493d a2ad 613d 8c98 a0bc 901e 8dbd
00000390: 3b39 93bd 105f a93b fa7f 463d c06f 03bd
000003a0: 4854 0ebc 6871 6abd a0c1 30bb f801 7c3c
000003b0: 67ba 8f3d 4923 913d ab5a 4cbd e54e 803d
000003c0: 4630 263d ee66 8cbd d6d0 243d cebc 38bd
000003d0: 180c 5a3c c6ab 663d c264 293d b248 5b3d
000003e0: 3370 37bd acc0 c9bc ecd4 80bc 0ed2 473d
000003f0: 048f aabc 7c43 b9bc ef19 83bd 64b9 e63c

fc4.bias f4 [4]
-0.0047876313 -0.049446702 0.021143138 -0.08079677
00000000: 90e1 9cbb a088 4abd 6034 ad3c c778 a5bd

fc5.weight f4 [4, 288]
-0.21890356 0.047859404 -0.27407226 -0.023773618 -0.22821529 -0.16881457 -0.099351205 -0.109136924
0.17818297 -0.13095282 -0.21805297 0.010717648 -0.03355983 -0.051813625 -0.013234984 -0.24912934
-0.15427676 0.02760372 -0.14346294 -0.22228657 -0.043266997 0.22961979 -0.08837617 -0.26647624
-0.21389325 -0.1631985 0.3907928 -0.48771036 0.17314112 -0.041469842 -0.18157764 -0.5649528
-0.13632537 -0.16544661 -0.36793038 -0.149458 -0.072214276 -0.19408974 -0.017760571 -0.19119136
-0.16979785 -0.44435924 -0.48411524 -0.13598341 -0.11625698 0.018270664 0.041153114 -0.09336016
-0.17382842 0.48834237 -0.13029924 0.044461213 -0.16733025 -0.003953927 0.019484978 -0.2718326
-0.3275811 -0.19077197 0.7028745 0.024842117 0.019239943 -0.17031963 -0.033650275 0.018403461
0.04891456 0.40535352 -0.13151242 0.034892004 0.03061463 -0.26361609 0.3580747 -0.03673743
-0.18725799 -0.18289426 -0.18708172 -0.28951412 0.0030979908 0.055758577 0.02700301 -0.18572854
-0.043047734 0.48232654 0.047225446 0.023536744 -0.19076368 -0.34908974 -0.15193596 -0.015057143
-0.44228828 -0.37414294 -0.2366741 -0.121137366 0.23442975 -0.4515275 0.42025852 -0.29348937
-0.22819051 0.11457456 -0.09610224 -0.06712344 -0.13491516 0.18214355 -0.19728504 -0.21623184
-0.2753108 0.39605004 0.039353326 0.45870066 -0.25624305 -0.10128134 -0.27744702 0.49889383
0.03817672 -0.15121447 -0.15562722 -0.21063416 -0.06461283 0.0058520697 0.15710422 -0.22908959
-0.23935623 -0.25637284 0.051889036 0.00612263 0.043393042 -0.3786538 -0.011775008 -0.46052167
-0.17276827 -0.026152268 -0.03185085 -0.005796273 -0.0017634598 -0.1520999 -0.24299377 -0.23805934
-0.11749983 -0.111899614 -0.061280053 -0.09514458 -0.021062303 0.0023190528 -0.15396367 -0.22448903
-0.12681109 -0.16406417 -0.19266877 0.50078183 0.020159034 -0.053439487 0.68730736 -0.47787315
0.50020045 -0.009545375 -0.25934967 -0.16118202 -0.1425993 -0.19439913 0.2203362 -0.14616154
0.034624875 0.049807854 -0.2623254 -0.11834744 0.50428665 0.74612695 -0.14499313 -0.21023524
-0.1480369 0.022810038 0.024220746 -0.13268536 -0.19737138 -0.29474866 -0.23114477 0.020254688
-0.008992831 -0.15483364 -0.2253558 -0.013898838 0.03612686 -0.14330013 -0.2862512 0.5271024
-0.21173282 -0.13594548 -0.20780657 -0.11185929 -0.13598974 0.19231711 0.031852305 -0.18964472
-0.18940584 0.5585283 -0.41784298 -0.17638028 0.032018807 0.018037533 0.0054071136 -0.15682605
0.037898365 0.06778521 0.25698295 0.28956336 -0.20647188 -0.020156506 0.032954223 -0.44775188
-0.0066147624 0.35217884 -0.11930904 0.057400424 -0.101667866 0.037423663 -0.08306462 -0.17943144
-0.2683104 0.019137148 0.18209884 -0.00012269588 -0.19314086 0.065926954 0.2997287 -0.5349734
-0.31169456 -0.21919763 -0.20218907 -0.17471357 -0.18273044 -0.2516347 -0.14160874 -0.11020478
0.042811275 0.03753848 0.23222207 -0.2521215 -0.15390767 0.5011353 -0.13150191 0.597327
-0.12690456 -0.22602788 -0.3005542 -0.22105001 -0.46163234 -0.15221868 0.15741503 -0.24023639
-0.20382796 -0.5340614 0.057368215 -0.1562409 -0.0651405 -0.027870439 -0.13386372 -0.13038875
00000000: 4128 60be 3908 443d 3353 8cbe e4c0 c2bc
00000010: 45b1 69be badd 2cbe a578 cbbd 2e83 dfbd
00000020: 9975 363e 7f18 06be 4749 5fbe 1399 2f3c
00000030: 0876 09bd 863a 54bd 8cd7 58bc c31b 7fbe
00000040: bafa 1dbe 3221 e23c f3e7 12be 179f 63be
00000050: bc38 31bd 7321 6b3e 91fe b4bd 936f 88be
00000060: d506 5bbe 821d 27be fe15 c83e 2cb5 f9be
00000070: e84b 313e 48dc 29bd 7def 39be bfa0 10bf
00000080: e198 0bbe d66a 29be 5f61 bcbe 850b 19be
00000090: 14e5 93bd 76bf 46be 9e7e 91bc abc7 43be
000000a0: 7ddf 2dbe 0e83 e3be f4dd f7be 3c3f 0bbe
000000b0: 2418 eebd 5cac 953c 2b90 283d 9d33 bfbd
000000c0: 1400 32be 0308 fa3e 2a6d 05be f61c 363d
000000d0: 9f58 2bbe f28f 81bb f69e 9f3c a42d 8bbe
000000e0: b6b8 a7be ba59 43be 95ef 333f b281 cb3c
000000f0: 169d 9d3c 4568 2ebe dfd4 09bd dbc2 963c
00000100: a25a 483d 7f8a cf3e 31ab 06be ebea 0e3d
00000110: 88cb fa3c b0f8 86be 9155 b73e fd79 16bd
00000120: 8fc0 3fbe a248 3bbe 5a92 3fbe 323b 94be
00000130: a907 4b3b 1b63 643d 6b35 dd3c 9f2f 3ebe
00000140: d252 30bd 81f3 f63e 786f 413d 21d0 c03c
00000150: 8e57 43be e4bb b2be 1a95 1bbe 3cb2 76bc
00000160: 9c73 e2be aa8f bfbe b25a 72be de16 f8bd
00000170: 5a0e 703e 9d2e e7be 202c d73e 3d44 96be
00000180: c6aa 69be 11a6 ea3d 40d1 c4bd 0478 89bd
00000190: 3327 0abe d783 3a3e 1705 4abe e16b 5dbe
000001a0: 8af5 8cbe 12c7 ca3e f430 213d d0da ea3e
000001b0: 4a32 83be 976c cfbd 890d 8ebe 036f ff3e
000001c0: 315f 1c3d f7d7 1abe be5c 1fbe 7bb0 57be
000001d0: bb53 84bd b8c2 bf3b eedf 203e 7696 6abe
000001e0: cd19 75be 4d43 83be 9989 543d 58a0 c83b
000001f0: e7bc 313d e9de c1be f7eb 40bc 7fc9 ebbe
00000200: 2aea 30be 483d d6bc 0976 02bd a9ee bdbb
00000210: e423 e7ba 14c0 1bbe 5cd3 78be d4c5 73be
00000220: c0a3 f0bd a02b e5bd cb00 7bbd 29db c2bd
00000230: da8a acbc 40fb 173b a7a8 1dbe 74e0 65be
00000240: c4da 01be 7000 28be f64a 45be 3d33 003f
00000250: 8f24 a53c 5de3 5abd 60f3 2f3f caab f4be
00000260: 230d 003f 3464 1cbc 7bc9 84be e60c 25be
00000270: 8d05 12be 9110 47be d09f 613e 5fab 15be
00000280: d0d2 0d3d 5203 4c3d 844f 86be 2560 f2bd
00000290: ee18 013f 2d02 3f3f 1479 14be e847 57be
000002a0: fc96 17be 1edc ba3c 966a c63c acde 07be
000002b0: b91b 4abe 4ce9 96be 37b1 6cbe 29ed a53c
000002c0: ab56 13bc b68c 1ebe acc3 66be f4b7 63bc
000002d0: c2f9 133d 45bd 12be 848f 92be 2ff0 063f
000002e0: 7dd0 58be 4b35 0bbe 3fcb 54be 7c16 e5bd
000002f0: e540 0bbe c7ee 443e 9077 023d 3a32 42be
00000300: 9bf3 41be b6fb 0e3f 84ef d5be 089d 34be
00000310: 2726 033d 73c3 933c 282e b13b 0297 20be
00000320: 513b 1b3d f9d2 8a3d 4593 833e a641 943e
00000330: 5d6d 53be 421f a5bc 02fb 063d bc3f e5be
00000340: a6c0 d8bb c950 b43e 4c58 f4bd b51c 6b3d
00000350: 3e37 d0bd 8e49 193d c91d aabd e0bc 37be
00000360: fb5f 89be 82c5 9c3c 1e78 3a3e eda7 00b9
00000370: b8c6 45be b604 873d 0a76 993e 04f4 08bf
00000380: 6e96 9fbe 5875 60be a70a 4fbe 1de8 32be
00000390: b01d 3bbe 43d6 80be e201 11be 0bb3 e1bd
000003a0: e05a 2f3d f3c1 193d 9fcb 6d3e 1216 81be
000003b0: f999 1dbe 674a 003f 70a8 06be 6cea 183f
000003c0: 45f3 01be da73 67be 3de2 99be ef5a 62be
000003d0: 135b ecbe 37df 1bbe 6831 213e 8700 76be
000003e0: 47b8 50be 3fb8 08bf effa 6a3d 9dfd 1fbe
000003f0: 6268 85bd 8c50 e4bc 9213 09be a184 05be

fc5.bias f4 [4]
0.09826128 0.038838144 0.09055811 0.100206934
00000000: 363d c93d bf14 1f3d 8876 b93d 4b39 cd3d
