Soumission/discrete_stable.pt (torch, 862123 bytes, 10 tensors)

fc1.weight f4 [576, 8]
-0.6610335 0.37790948 0.5387984 0.2013008 -0.5513268 -0.3589136 -0.05271476 0.023476955
-0.06626112 -0.6613698 0.17376685 0.45007008 0.056062132 0.1391314 -0.21264474 0.0068074167
-0.61575747 0.44098213 0.4712147 0.50993484 -0.61084574 -0.20378867 0.09718129 -0.33012497
0.14847566 -0.16450787 -0.48268723 -0.29067102 -0.22617799 0.03309102 0.32086203 -0.08241236
0.3628584 -1.3387678 0.009531301 -0.5432913 -0.28804228 0.03223224 0.082824476 0.095244445
-0.11496687 -0.62532854 -0.13324577 -0.25376806 0.15372556 -0.53961384 0.29507506 -0.071553424
0.12687556 -0.4451229 -0.08931169 0.0609031 0.33778602 -0.09208243 0.37439272 -0.11481222
-0.7775879 0.03321775 -0.49019998 0.10644394 0.4824321 -0.1962996 0.06701054 -0.27868915
-0.6356538 -0.1724546 0.500023 -0.2552997 0.3260309 -0.12128757 -0.08985307 0.24178287
-0.107502595 0.23745248 0.18716335 0.0067803855 0.28246203 0.17920913 -0.3460335 -0.3925186
-0.15591685 0.030117888 -0.37321672 -0.34656397 0.39057472 -0.49608552 -0.17562497 -0.44940725
-0.63123953 -1.0779291 0.20993198 -0.6287578 -0.21003793 -0.26204395 -0.0003972561 0.10650403
-0.34894195 -0.6529749 -0.27982792 -0.216857 -0.020879986 0.21586286 0.41557854 0.08792878
0.30568138 -0.7985891 -0.07193337 -0.01100781 0.15568548 0.013278292 -0.05973505 -0.19046143
-0.0045362096 -0.57085633 -0.023775976 -0.3744754 -0.021328561 0.20259878 -0.060416356 -0.31880534
-0.76079565 -1.0826141 -0.141145 -0.55372095 0.023224667 -0.18639548 0.20306545 -0.12401332
-0.48209938 0.819956 -0.11864081 0.6674856 0.2524476 0.040754404 -0.36637318 -0.097789876
0.48898473 0.6966676 0.40653428 -0.5096625 -0.6575763 0.20380868 -0.092217974 -0.1293984
0.10691548 -0.29683074 0.015441792 0.17420678 -0.1538346 0.4015317 -0.29369295 0.3695874
0.021156609 -1.1031569 -0.14506082 -0.7720163 0.17317511 0.32205814 0.30539978 0.13722174
0.016664619 -0.7591749 -0.22847204 0.045052294 0.28057438 -0.53859705 0.23887993 0.24602857
0.33602238 -0.41885665 0.08867436 0.17017122 -0.09556499 -0.015849732 0.16960399 0.13187608
0.110495165 0.38626266 0.57022774 -0.32612932 0.4783465 -0.62125623 0.29464874 -0.24582627
0.20627393 0.3192806 0.3608207 -0.34228164 0.19038156 -0.78304625 0.019777637 -0.0069597475
0.26991513 -0.67472553 0.25916496 -0.15047349 0.035114586 -0.044515412 0.38781273 -0.07104513
-0.18760411 0.6539797 0.2578646 0.5054717 -0.076885946 -0.56981695 -0.025737846 -0.124260746
-0.7443443 -1.0762945 -0.6601735 0.2793094 -0.09147531 0.27257526 -0.06218382 -0.039995346
0.36178976 -0.25016275 -0.30415392 0.82841814 -0.09905514 0.22657102 0.22084397 0.328808
-1.017526 0.0040471256 0.29832372 -0.69861925 -0.39471236 -0.04702984 0.12567464 0.2857941
0.5046446 0.24149133 0.02647189 0.048577376 -0.6808943 -0.6122397 0.037175316 0.081528775
-0.45252144 -0.094923794 -0.4533272 0.042167183 -0.038934432 -0.41647613 0.13780838 0.19581605
0.66630125 0.5815152 -0.0043237135 0.91472477 0.56740254 0.10903387 -0.35724112 -0.09069995
00000000: 7e39 29bf 5a7d c13e b1ee 093f cc21 4e3e
00000010: c123 0dbf 86c3 b7be 6feb 57bd be52 c03c
00000020: e9b3 87bd 884f 29bf f0ef 313e 966f e63e
00000030: 68a1 653d 7678 0e3e 8bbf 59be c010 df3b
00000040: 48a2 1dbf 69c8 e13e 0e43 f13e 178b 023f
00000050: 6360 1cbf faad 50be fc06 c73d 2406 a9be
00000060: 010a 183e c074 28be c822 f7be d5d2 94be
00000070: 349b 67be 738a 073d 0748 a43e d0c7 a8bd
00000080: 94c8 b93e be5c abbf 2d29 1c3c 2315 0bbf
00000090: 477a 93be f405 043d e19f a93d 850f c33d
000000a0: c073 ebbd 8815 20bf 9471 08be e3ed 81be
000000b0: 3c6a 1d3e 2224 0abf 1414 973e 9a8a 92bd
000000c0: abeb 013e 26e7 e3be 0ce9 b6bd 8775 793d
000000d0: 4af2 ac3e b795 bcbd 67b0 bf3e ab22 ebbd
000000e0: 0010 47bf 560f 083d 7efb fabe 48ff d93d
000000f0: 5701 f73e c302 49be d23c 893d 58b0 8ebe
00000100: 35ba 22bf f097 30be 8201 003f a4b6 82be
00000110: 86ed a63e 9e65 f8bd e304 b8bd ee95 773e
00000120: 522a dcbd be26 733e c0a7 3f3e ff2d de3b
00000130: dd9e 903e 9982 373e 4e2b b1be 33f8 c8be
00000140: aba8 1fbe cab9 f63c 4316 bfbe d570 b1be
00000150: 69f9 c73e ecfe fdbe 08d7 33be b518 e6be
00000160: ea98 21bf 95f9 89bf 69f8 563e 45f6 20bf
00000170: 2f14 57be a02a 86be d046 d0b9 c91e da3d
00000180: 85a8 b2be 5d29 27bf 9b45 8fbe c30f 5ebe
00000190: 810c abbc 270b 5d3e b6c6 d43e 0114 b43d
000001a0: 4582 9c3e 5670 4cbf cd51 93bd 1a5a 34bc
000001b0: 046c 1f3e 318d 593c bdac 74bd 5208 43be
000001c0: 7ca4 94bb a423 12bf d6c5 c2bc 3dbb bfbe
000001d0: 3cb9 aebc 0e76 4f3e 2477 77bd 743a a3be
000001e0: 81c3 42bf 1993 8abf 5188 10be a8c0 0dbf
000001f0: a841 be3c 75de 3ebe 64f0 4f3e b2fa fdbd
00000200: bbd5 f6be a3e8 513f f4f9 f2bd 56e0 2a3f
00000210: d040 813e 17ee 263d 4495 bbbe 0f46 c8bd
00000220: 355c fa3e cf58 323f 4325 d03e 3e79 02bf
00000230: ec56 28bf 39b3 503e c7dc bcbd 0481 04be
00000240: 81f6 da3d 33fa 97be 92ff 7c3c 4363 323e
00000250: d186 1dbe 9095 cd3e ec5e 96be 8f3a bd3e
00000260: a050 ad3c 3f34 8dbf d38a 14be dca2 45bf
00000270: d154 313e cee4 a43e 5c5d 9c3e db83 0c3e
00000280: 3d84 883c 4959 42bf 93f4 69be c188 383d
00000290: 72a7 8f3e 7fe1 09bf f19c 743e eaee 7b3e
000002a0: 200b ac3e 6174 d6be e79a b53d 5d41 2e3e
000002b0: 94b7 c3bd 4cd7 81bc abac 2d3e 860a 073e
000002c0: 4a4b e23d 38c4 c53e 72fa 113f 6cfa a6be
000002d0: d5e9 f43e a60a 1fbf 33dc 963e e2b9 7bbe
000002e0: 7939 533e bf78 a33e 7ebd b83e 8a3f afbe
000002f0: 62f3 423e b875 48bf b604 a23c 980e e4bb
00000300: 5132 8a3e d0ba 2cbf 45b1 843e b915 1abe
00000310: 50d4 0f3d cb55 36bd 648f c63e 1c80 91bd
00000320: 4b1b 40be 376b 273f d406 843e 9866 013f
00000330: 6176 9dbd 86df 11bf 2dd8 d2bc 6b7c febd
00000340: 598d 3ebf 05c4 89bf 2101 29bf a401 8f3e
00000350: 6857 bbbd fc8e 8b3e 76b4 7ebd 29d2 23bd
00000360: 823c b93e 5515 80be 10ba 9bbe 3613 543f
00000370: 6cdd cabd 3c02 683e ec24 623e 8659 a83e
00000380: 4b3e 82bf c09d 843b e3bd 983e b6d8 32bf
00000390: bd17 cabe 5da2 40bd dab0 003e 9b53 923e
000003a0: 6330 013f 8149 773e 94db d83c 12f9 463d
000003b0: 174f 2ebf bebb 1cbf 2545 183d 8ff8 a63d
000003c0: e4b0 e7be 6867 c2bd 811a e8be 7fb7 2c3d
000003d0: b679 1fbd 5c3c d5be a41d 0d3e 0184 483e
000003e0: b892 2a3f 2ede 143f f0ad 8dbb 672b 6a3f
000003f0: 4b41 113f 264d df3d 4fe8 b6be e5c0 b9bd

fc1.bias f4 [576]
0.117049664 0.45343903 -0.123905905 0.6353197 -0.11636334 -0.084040485 0.2587632 0.2841282
0.30388075 0.3546973 0.58029944 0.010837249 -0.012724895 0.5067159 0.59486365 -0.016077202
0.14365454 0.11443472 -0.34392342 -0.2093281 0.37002298 0.51911515 0.23380975 0.16416188
0.4311023 0.1327081 -0.040864773 0.3635248 -0.055098597 0.048315067 -0.23426895 0.37812424
0.33516946 0.5016124 -0.2467666 0.4591822 0.1876016 0.34043482 0.76797116 -0.34715462
0.009390338 -0.26005027 0.03547504 0.48166046 -0.07749815 0.3392323 -0.4293969 0.11793558
0.38844424 0.33488125 0.59328437 0.2604899 0.42511478 -0.17531672 -0.5772249 0.5524995
-0.28613064 0.16851187 -0.08388089 -0.1929444 0.34356117 0.28546658 0.63852787 -0.1644648
0.04390351 -0.22846733 -0.020776726 0.24000672 0.3914367 0.4710425 -0.028813139 -0.012460528
0.5095585 0.088675216 -0.09714459 0.11607555 -0.3105003 0.0374147 -0.041088015 0.2330034
0.5110162 0.08073244 0.059640896 -0.16117777 0.06338492 0.31520173 -0.13159618 0.26023862
0.16287306 0.31639534 0.5363671 -0.16068244 0.4853572 0.71473837 0.26172772 0.33615848
0.57646114 -0.48273748 -0.049561538 -0.20750538 0.11178886 0.24965034 0.4989607 -0.14317004
-0.015187 -0.14512959 0.37475744 -0.20088014 -0.2198292 0.2703124 0.0057008946 -0.34740773
0.2983686 0.088961154 0.33509833 0.53446954 0.3696137 0.26314336 -0.11604515 0.52988076
0.51310533 -0.046421047 0.38611042 0.46269882 0.25895116 -0.10700031 -0.025011305 -0.18373963
0.52820295 0.34603775 0.3535575 0.10678688 -0.29766893 0.494099 0.02147862 -0.23646359
-0.24004261 -0.50180155 0.44316545 -0.1641412 -0.3000656 -0.23645496 0.01683846 -0.4362278
-0.6005455 0.7622629 0.0064764107 0.39922634 0.22376905 0.42605525 0.38047785 -0.052089952
-0.19400811 0.5650532 0.6337455 -0.16123839 0.15112618 0.14912823 0.1714802 -0.06822336
-0.047667384 0.31513575 -0.066512495 -0.0636955 0.052038845 -0.41887543 0.1412736 -0.3718678
-0.08644009 -0.17667761 0.07354559 0.2812737 -0.06479703 0.6118985 0.24405499 0.029812377
-0.07464612 0.2869398 0.21394251 -0.11209332 0.5892899 0.3283567 -0.087720305 0.072078764
0.53820735 0.100788586 0.55010647 0.5301756 0.049054433 0.15022905 -0.26078057 0.008313134
-0.007345098 -0.26517898 0.064364366 -0.14190464 -0.2577612 0.3301035 0.6492615 -0.02550827
-0.15537885 0.44361845 0.13213983 -0.22403535 -0.21992704 0.29549792 0.30975395 0.12038327
0.06857549 -0.10665734 -0.32992476 0.1631137 -0.018195232 -0.16943751 0.10637328 0.40649346
0.24364215 -0.0076632784 -0.109597385 -0.059079982 0.08392585 -0.0623127 0.5112683 -0.02854754
0.24638589 -0.1968971 0.15510803 0.042293806 -0.43225065 0.50524276 0.23785008 0.25292245
0.23889245 0.14477341 -0.14295387 0.16483548 0.08533369 0.2969486 0.38952094 0.17534354
-0.052236374 0.31932557 0.24213132 0.4196191 -0.08589122 0.020365946 -0.049210668 0.17874984
0.54199696 0.3023863 0.37004247 0.17646837 0.5916038 -0.1767796 0.105961226 -0.14891687
00000000: bcb7 ef3d 2929 e83e 61c2 fdbd 50a4 223f
00000010: e74f eebd 6b1d acbd 9c7c 843e 4079 913e
00000020: 4296 9b3e e29a b53e 818e 143f b88e 313c
00000030: 147c 50bc 22b8 013f fc48 183f 56b4 83bc
00000040: 2d1a 133e c05c ea3d bb16 b0be 1b5a 56be
00000050: a773 bd3e bbe4 043f d36b 6f3e 0d1a 283e
00000060: 71b9 dc3e a2e4 073e d261 27bd ec1f ba3e
00000070: 11af 61bd 05e6 453d 33e4 6fbe 8099 c13e
00000080: 559b ab3e ac69 003f 62b0 7cbe ee19 eb3e
00000090: a21a 403e 794d ae3e c299 443f 40be b1be
000000a0: efd9 193c 4f25 85be 474e 113d 339c f63e
000000b0: 5ab7 9ebd dbaf ad3e e9d9 dbbe 3688 f13d
000000c0: 2ae2 c63e 8e75 ab3e 7ce1 173f ef5e 853e
000000d0: a5a8 d93e 3a86 33be 03c5 13bf 9b70 0d3f
000000e0: b77f 92be 608e 2c3e bec9 abbd 3793 45be
000000f0: 40e7 af3e ad28 923e 9076 233f 7669 28be
00000100: 2bd4 333d 57f3 69be f433 aabc 52c4 753e
00000110: 646a c83e 7c2c f13e 8809 ecbc 3e27 4cbc
00000120: 6d72 023f 5a9b b53d bef3 c6bd 05b9 ed3d
00000130: e5f9 9ebe 2840 193d e84b 28bd 7198 6e3e
00000140: f5d1 023f 0d57 a53d 034a 743d c90b 25be
00000150: f4cf 813d 1f62 a13e 26c1 06be ff3d 853e
00000160: 32c8 263e 92fe a13e 5b4f 093f f089 24be
00000170: bd80 f83e 18f9 363f 2d01 863e f71c ac3e
00000180: f592 133f 5e29 f7be 0a01 4bbd 4a7c 54be
00000190: 8ff1 e43d 57a4 7f3e c777 ff3e 2b9b 12be
000001a0: e5d2 78bc da9c 14be 35e0 bf3e 86b3 4dbe
000001b0: e81a 61be 6366 8a3e 92ce ba3b 6ddf b1be
000001c0: c5c3 983e 4431 b63d 0292 ab3e ffd2 083f
000001d0: 023e bd3e baba 863e 14a9 edbd 44a6 073f
000001e0: df5a 033f ff23 3ebd 44b0 c53e dce6 ec3e
000001f0: 3f95 843e fb22 dbbd 82e4 ccbc 3e26 3cbe
00000200: 4f38 073f dc2b b13e 7d05 b53e 14b3 da3d
00000210: 1068 98be 8bfa fc3e eef3 af3c 8323 72be
00000220: bbcd 75be 1176 00bf 95e6 e23e a114 28be
00000230: 33a2 99be 4021 72be cff0 893c 4059 dfbe
00000240: 5abd 19bf a923 433f 1238 d43b 6567 cc3e
00000250: b723 653e ea23 da3e fecd c23e 465c 55bd
00000260: 10aa 46be 54a7 103f 253d 223f ad1b 25be
00000270: d2c0 1a3e 12b5 183e 8198 2f3e b0b8 8bbd
00000280: e03e 43bd 7959 a13e b437 88bd c972 82bd
00000290: af26 553d d776 d6be 07aa 103e 7565 bebe
000002a0: 8007 b1bd faea 34be 129f 963d 1b03 903e
000002b0: 4eb4 84bd 61a5 1c3f 8de9 793e 1639 f43c
000002c0: 11e0 98bd c6e9 923e bf13 5b3e 2f91 e5bd
000002d0: b4db 163f 5f1e a83e b4a6 b3bd 089e 933d
000002e0: f5c7 093f 3f6a ce3d c7d3 0c3f 97b9 073f
000002f0: 4ded 483d a5d5 193e 0885 85be d033 083c
00000300: 26af f0bb 8ac5 87be 77d1 833d 734f 11be
00000310: 47f9 83be 5303 a93e 0036 263f b8f6 d0bc
00000320: a21b 1fbe f521 e33e aa4f 073e 8669 65be
00000330: 8e34 61be 814b 973e 1298 9e3e 818b f63d
00000340: 4e71 8c3d 2a6f dabd e6eb a8be 4707 273e
00000350: 2b0e 95bc 0781 2dbe 3cda d93d e91f d03e
00000360: 547d 793e 3d1c fbbb 9874 e0bd dafd 71bd
00000370: 51e1 ab3d 9a3b 7fbd 7be2 023f 88dc e9bc
00000380: 954c 7c3e 659f 49be a4d4 1e3e 453c 2d3d
00000390: f54f ddbe 9757 013f f98e 733e 0d7f 813e
000003a0: 39a0 743e 7b3f 143e 8062 12be a2ca 283e
000003b0: 6ec3 ae3d a609 983e 4a6f c73e 428d 333e
000003c0: cff5 55bd a47e a33e 46f1 773e 51d8 d63e
000003d0: bce7 afbd 7cd6 a63c 2091 49bd 330a 373e
000003e0: 50c0 0a3f 61d2 9a3e 3576 bd3e 20b4 343e
000003f0: 5973 173f b605 35be 3302 d93d aa7d 18be

fc2.weight f4 [288, 576]
-0.41171694 -0.013076142 0.09873736 0.065950915 0.016608717 -0.066512264 0.02195094 0.17145814
-0.21484731 -0.18930377 -0.111028805 -0.11059569 -0.044863693 0.080520324 0.023582133 -0.12211357
0.17437182 0.11409035 -0.045909878 -0.0011219705 0.03932235 0.14746645 0.10068382 0.119727604
0.0673685 0.04372338 -0.4249792 -0.016445654 -0.22383022 0.2987032 -0.55133396 0.13553834
-0.25527292 0.0151756285 0.255733 0.08997921 -0.14216128 0.10086789 0.14719881 -0.2509669
0.024982255 0.008747556 0.119747505 0.022810472 -0.18484987 0.2504244 -0.27457938 -0.31688792
-0.12680317 -0.024211343 0.055670828 -0.04066239 -0.086915776 -0.00092934957 -0.23437065 0.057347454
-0.5670829 -0.08311087 0.32036582 0.2266851 0.044059075 -0.027918126 0.20796403 0.27330425
0.24236913 -0.1946776 -0.08989429 -0.35055754 -0.15339656 0.04322775 -0.2863279 -0.12666087
0.114000306 -0.0322588 0.23859546 0.16123441 -0.15723424 0.28186983 0.16327557 -0.18826543
0.061533485 -0.18128526 0.025714269 0.17914069 -0.01881262 -0.1446676 0.12634553 0.016983656
0.20202142 -0.07290032 0.21982832 0.18613018 0.07137668 0.13181311 -0.04220003 0.1303305
0.084905975 -0.06311352 -0.10255799 -0.16980217 -0.034057 0.030374048 0.017311757 -0.07532733
0.3101228 -0.24460678 -0.31453022 -0.04171854 -0.08840446 0.25052595 -0.12707965 0.17317091
-0.105214365 -0.11604455 -0.02236401 0.103330374 -0.07953178 -0.075860485 0.19703114 0.08398666
0.1316177 -0.07462448 -0.066185 -0.12726128 -0.18233663 0.016652284 -0.1820045 -0.5775007
0.029314972 0.020505274 -0.122967064 0.2045438 -0.013170707 0.121177614 -0.21513914 0.21537617
-0.37810582 -0.4011603 -0.13694802 -0.3806045 -0.25995153 -0.514542 -0.7338759 0.109520994
-0.33567306 -0.04344859 -1.6959698 0.068295546 -0.115283355 0.17144994 0.068676546 -0.14324974
-0.28659886 0.04549769 -0.07088932 -0.09318854 0.059592105 -0.61201686 -0.46310157 0.059700366
0.52212733 0.017469564 0.23254538 0.3155851 -0.44151637 -0.35030887 -0.0936969 -0.31650138
0.09708931 0.04306947 0.12227547 -0.09682417 -0.20819181 0.088539734 0.07305201 -0.15417014
-0.025655797 0.050470445 -0.25264528 -0.11649534 0.068515025 0.14083034 0.14661732 0.055074904
0.08920295 0.05838322 0.051439814 0.19589853 -0.45155784 0.6089855 -0.37082145 -0.92670476
-0.4489755 -0.26843646 -0.09465782 -1.0088342 -0.15922596 -0.0966865 -0.14059709 0.068296716
0.55183667 -0.21813618 -0.12357809 -0.3979172 -0.010010187 0.2620502 0.04313713 -0.039660823
-0.0645453 0.15666337 -0.14418386 -0.1727818 -0.040540807 0.23361865 -0.012904974 -0.077857785
-0.012165327 -0.72880584 0.27566656 0.16267598 0.23599288 0.43031573 0.08737387 -0.012221815
-0.1649582 -0.012287724 0.10065155 0.007759646 -0.29427946 0.11476531 0.061372783 0.05092195
-0.3269629 -0.14842759 0.30753878 0.22094008 -0.0062920246 -0.038469978 -0.018978266 -0.087201945
0.07166937 0.039587248 0.017562596 -0.22527525 0.15800087 0.21272704 -0.22162615 0.39239368
0.07614248 0.2191572 0.18129279 0.33889857 -0.028853014 -0.10696043 -0.014358635 -0.74017143
00000000: 90cc d2be 513d 56bc d036 ca3d 4611 873d
00000010: 010f 883c 9537 88bd 75d2 b33c b992 2f3e
00000020: ef00 5cbe d9d8 41be 1263 e3bd fe7f e2bd
00000030: fec2 37bd d7e7 a43d 512f c13c ae16 fabd
00000040: 878e 323e 34a8 e93d ff0b 3cbd 150f 93ba
00000050: 7910 213d 7201 173e 5233 ce3d bf33 f53d
00000060: 7ff8 893d 4917 333d e096 d9be 09b9 86bc
00000070: c033 65be a0ef 983e 3924 0dbf 90ca 0a3e
00000080: 22b3 82be 33a3 783c 70ef 823e 0547 b83d
00000090: ba92 11be d393 ce3d 49bb 163e bc7e 80be
000000a0: 96a7 cc3c e951 0f3c 2e3e f53d 07dd ba3c
000000b0: 4949 3dbe a137 803e ab95 8cbe 223f a2be
000000c0: b1d8 01be de56 c6bc 1807 643d 9b8d 26bd
000000d0: e600 b2bd 989f 73ba dcfe 6fbe 2ae5 6a3d
000000e0: 582c 11bf 0836 aabd fd06 a43e 2420 683e
000000f0: 4a77 343d 8eb4 e4bc 86f4 543e 89ee 8b3e
00000100: 9d2f 783e 9159 47be 7f1a b8bd 477c b3be
00000110: fd13 1dbe 950f 313d 9299 92be 63b3 01be
00000120: fe78 e93d ce21 04bd 5e52 743e a21a 253e
00000130: 0302 21be 3e51 903e b631 273e a7c8 40be
00000140: 890a 7c3d d8a2 39be bba6 d23c a870 373e
00000150: ec1c 9abc be23 14be b960 013e 4f21 8b3c
00000160: b4de 4e3e c34c 95bd ad1a 613e e998 3e3e
00000170: f02d 923d 04fa 063e f0d9 2cbd 5c75 053e
00000180: 2fe3 ad3d a941 81bd ec09 d2bd 9fe0 2dbe
00000190: 5a7f 0bbd ffd2 f83c 63d1 8d3c 3745 9abd
000001a0: 6ac8 9e3e 337a 7abe 1b0a a1be 0fe1 2abd
000001b0: 660d b5bd f044 803e 2b21 02be b753 313e
000001c0: a17a d7bd c4a8 edbd ba34 b7bc e09e d33d
000001d0: 8fe1 a2bd be5c 9bbd 88c2 493e 3301 ac3d
000001e0: cac6 063e b8d4 98bd 008c 87bd c850 02be
000001f0: 74b6 3abe 5f6a 883c 635f 3abe 16d7 13bf
00000200: f425 f03c adfa a73c 28d6 fbbd ee73 513e
00000210: f3c9 57bc f82b f83d 6f4d 5cbe 928b 5c3e
00000220: 1697 c1be e264 cdbe 1a3c 0cbe 98de c2be
00000230: 5e18 85be 06b9 03bf 4adf 3bbf 8b4c e03d
00000240: 57dd abbe 26f7 31bd 8a15 d9bf 89de 8b3d
00000250: ae19 ecbd 9390 2f3e 4aa6 8c3d 0fb0 12be
00000260: 16bd 92be c95b 3a3d 6b2e 91bd a2d9 bebd
00000270: da16 743d 23ad 1cbf a61b edbe 5f88 743d
00000280: 23aa 053f 551c 8f3c 6020 6e3e 5f94 a13e
00000290: 6f0e e2be af5b b3be 29e4 bfbd 780c a2be
000002a0: c3d6 c63d 9d69 303d 906b fa3d c04b c6bd
000002b0: 3c30 55be 5254 b53d 4b9c 953d c7de 1dbe
000002c0: 1b2c d2bc 19ba 4e3d b95a 81be 1c95 eebd
000002d0: 9b51 8c3d d435 103e da22 163e 3996 613d
000002e0: 09b0 b63d 3e23 6f3d 8eb2 523d a099 483e
000002f0: 9732 e7be 79e6 1b3f 4fdc bdbe 863c 6dbf
00000300: 1ee0 e5be 8170 89be f6db c1bd 7b21 81bf
00000310: 210c 23be 9203 c6bd aff8 0fbe 26df 8b3d
00000320: 2b45 0d3f 175f 5fbe 8216 fdbd cebb cbbe
00000330: c401 24bc 722b 863e 8fb0 303d 6373 22bd
00000340: 5430 84bd 5d6c 203e efa4 13be b6ed 30be
00000350: 1e0e 26bd ba39 6f3e 626f 53bc e773 9fbd
00000360: 1451 47bc 0593 3abf 2b24 8d3e 8894 263e
00000370: 1ea8 713e 5852 dc3e 12f1 b23d 023e 48bc
00000380: cdea 28be 7352 49bc 6622 ce3d a144 fe3b
00000390: ccab 96be 130a eb3d 0762 7b3d 8993 503d
000003a0: ae67 a7be 67fd 17be b975 9d3e 1e3e 623e
000003b0: 542d cebb b292 1dbd 4f78 9bbc ef96 b2bd
000003c0: 64c7 923d 3d26 223d 6fdf 8f3c 8eae 66be
000003d0: fbca 213e 1ed5 593e f7f1 62be d3e7 c83e
000003e0: 97f0 9b3d bf6a 603e d1a4 393e 1d84 ad3e
000003f0: 285d ecbc 120e dbbd 7b40 6bbc e07b 3dbf

fc2.bias f4 [288]
0.07518448 -0.03836747 0.04443769 -0.028173266 0.093708105 0.08152952 0.064691156 0.024635507
0.041274384 0.054674406 0.13974182 0.0031174612 -0.04351708 0.119195335 0.013228575 0.033925243
0.011692414 -0.0027319 0.07428415 0.039037213 0.059586335 0.1307201 0.007855968 0.116624035
0.09636027 0.047118723 -0.03218226 0.05576344 0.032475058 0.0189567 0.048000395 0.14018124
0.08601072 0.07151783 0.14033037 0.036721393 0.08634713 0.037289657 -0.041057665 0.037030973
0.017777666 0.013204293 0.115798004 0.008987322 0.08851298 0.020938553 -0.0074397055 0.016238727
0.023959717 -0.12063765 0.04161688 -0.04347251 0.056487765 0.039251257 -0.02597308 0.12869968
0.044125646 0.008390125 -0.06561353 0.00045025896 0.002644064 0.10066049 -0.1280062 -0.02951734
0.005462198 0.17131838 0.027815009 0.06749913 -0.061862107 0.029029738 -0.103665486 0.03090725
0.017432053 0.06245827 0.04741529 0.08684273 0.010370406 0.13713385 -0.032646514 0.023568617
-0.04021553 -0.24938379 0.03000707 -0.042846307 0.037930965 0.15329084 0.0986027 0.00083845266
0.0722994 0.049787045 0.031730633 0.08157221 -0.037793897 0.12490741 -0.25760782 0.103929415
0.037990823 0.072283775 0.03455712 -0.03568706 0.018651227 0.44951287 0.048646323 0.040508132
0.15214406 -0.22545463 0.011684 0.12624812 0.08481788 -0.010296001 0.024357093 -0.1856769
-0.001440099 0.044147797 0.024384158 -0.06821133 0.11186533 -0.022363251 0.28098354 -0.027503029
0.09328666 -0.026351998 0.34607378 0.023292726 0.016602721 0.07779645 -0.016818486 0.043883324
0.07064118 -0.02199149 0.011067864 -0.0030147473 0.028726488 0.10233973 0.0511834 0.13077012
0.0016946979 0.0241727 0.10645406 0.017760472 -0.037288588 -0.019697124 0.06163561 0.018101484
0.047303874 0.032101743 -0.07430636 0.28366828 -0.024263648 0.0322937 -0.0145712495 0.016518246
-0.18666556 0.007818138 0.04373537 0.06999952 0.156631 0.039661154 0.059700593 0.065562464
0.028255107 0.027780494 0.03642739 0.02669506 0.094225705 -0.028902298 0.058734115 0.07483852
-0.042741995 0.00047939966 -0.018821815 0.084651195 -0.0007497003 0.012496171 0.04328241 -0.043153506
-0.03641681 0.05766943 0.06614027 0.012192435 0.005750068 0.008583243 0.11182117 -0.018602716
0.056337584 0.0587435 0.080956675 0.05122799 0.01585649 0.3033341 -0.1431377 -0.006314931
0.01654649 0.086417526 0.05580424 0.050670013 -0.029279688 0.017182376 0.021663714 0.04194904
0.033880737 0.03232 0.26019755 -0.1325492 0.13943085 0.00083016785 -0.013178939 0.0512301
-0.013392076 -0.030266795 0.038296886 -0.02596418 0.031087976 -0.03537234 0.027564943 0.028575424
0.0502581 0.06850501 -0.107440904 -0.03476795 0.053394284 0.055437945 -0.19284974 0.11823253
0.087142594 0.121640936 0.06237633 0.09415886 0.030105038 0.098923355 0.034459352 0.01614057
0.0046830727 -0.02010961 0.31840935 0.077663004 0.09509187 0.005052934 0.08183259 -0.02401464
0.07959839 0.005973994 0.09022567 0.03598399 0.051859338 0.10636194 0.14867166 -0.025910957
-0.03240958 0.07200959 -0.0013662233 0.04341273 -0.020309996 -0.00726794 0.029250177 0.0699963
00000000: 52fa 993d 3527 1dbd 4c04 363d 9fcb e6bc
00000010: 09ea bf3d f3f8 a63d cc7c 843d 67d0 c93c
00000020: 540f 293d 45f2 5f3d 7b18 0f3e 524e 4c3b
00000030: f73e 32bd af1c f43d aabc 583c 32f5 0a3d
00000040: 8a91 3f3c ad09 33bb 4a22 983d 7ce5 1f3d
00000050: cd10 743d 7ddb 053e 51b6 003c 95d8 ee3d
00000060: 8958 c53d 90ff 403d 8cd1 03bd 3468 643d
00000070: 9104 053d 154b 9b3c 109c 443d ac8b 0f3e
00000080: 6326 b03d f177 923d c4b2 0f3e 2c69 163d
00000090: c4d6 b03d 0abd 183d 152c 28bd caad 173d
000000a0: 78a2 913c d256 583c 8127 ed3d 903f 133c
000000b0: 4b46 b53d 5487 ab3c c6c8 f3bb 1407 853c
000000c0: 2b47 c43c df10 f7bd 7676 2a3d 3b10 32bd
000000d0: b75f 673d edc5 203d 7fc5 d4bc d9c9 033e
000000e0: 18bd 343d bc76 093c 6360 86bd bc10 ec39
000000f0: 0848 2d3b 1627 ce3d 0f14 03be 59ce f1bc
00000100: 3dfc b23b 166e 2f3e 4ddc e33c fc3c 8a3d
00000110: 1f63 7dbd c6cf ed3c 924e d4bd 3331 fd3c
00000120: aacd 8e3c 3ed4 7f3d 8936 423d 9ada b13d
00000130: a3e8 293c d16c 0c3e 5ab8 05bd f912 c13c
00000140: 0ab9 24bd 775e 7fbe 63d1 f53c 9c7f 2fbd
00000150: 805d 1b3d 46f8 1c3e 36f0 c93d 9bcb 5b3a
00000160: b511 943d 80ed 4b3d fbf7 013d 550f a73d
00000170: c6cd 1abd 75cf ff3d 2ce5 83be f2d8 d43d
00000180: 449c 1b3d 8409 943d c48b 0d3d 982c 12bd
00000190: 75ca 983c 8d26 e63e 5e41 473d dbeb 253d
000001a0: a7cb 1b3e 94dd 66be 3f6e 3f3c 3047 013e
000001b0: ffb4 ad3d 8fb0 28bc 8788 c73c 1622 3ebe
000001c0: b4c1 bcba 52d4 343d 49c1 c73c 62b2 8bbd
000001d0: a619 e53d 2333 b7bc 13dd 8f3e 084e e1bc
000001e0: 140d bf3d 25e0 d7bc 9530 b13e 63d0 be3c
000001f0: 6e02 883c bf53 9f3d ecc6 89bc 00bf 333d
00000200: 53ac 903d 7f27 b4bc fc55 353c 1193 45bb
00000210: d053 eb3c 7e97 d13d afa5 513d 9ae8 053e
00000220: a020 de3a d305 c63c 9604 da3d 697e 913c
00000230: ebbb 18bd dd5b a1bc 9f75 7c3d 9049 943c
00000240: b5c1 413d 1e7d 033d ef2d 98bd f83c 913e
00000250: 8fc4 c6bc 6646 043d 40bc 6ebc 4651 873c
00000260: 4225 3fbe a617 003c dc23 333d e95b 8f3d
00000270: e063 203e bc73 223d 9c88 743d 9d45 863d
00000280: 4177 e73c eb93 e33c e334 153d 99af da3c
00000290: 68f9 c03d 83c4 ecbc 2f93 703d f044 993d
000002a0: 3b12 2fbd ef57 fb39 3530 9abc 9b5d ad3d
000002b0: 8987 44ba bdbc 4c3c e548 313d bbc1 30bd
000002c0: cb29 15bd c836 6c3d 8d74 873d c7c2 473c
000002d0: 116b bc3b bba0 0c3c 7f02 e53d b964 98bc
000002e0: 3dc2 663d 069d 703d 9dcc a53d 71d4 513d
000002f0: 78e5 813c 9b4e 9b3e b092 12be 7bed cebb
00000300: 818c 873c acfb b03d fd92 643d 5c8b 4f3d
00000310: f5db efbc 0ec2 8c3c 1a78 b13c c2d2 2b3d
00000320: 87c6 0a3d fa61 043d 9d38 853e faba 07be
00000330: f6c6 0e3e 9f9f 593a 7aec 57bc a7d6 513d
00000340: 706a 5bbc 12f2 f7bc 32dd 1c3d d5b2 d4bc
00000350: 36ac fe3c 96e2 10bd e0cf e13c 0217 ea3c
00000360: 70db 4d3d 5b4c 8c3d fa09 dcbd d768 0ebd
00000370: f7b3 5a3d e612 633d 677a 45be e623 f23d
00000380: d177 b23d e21e f93d 537e 7f3d 5cd6 c03d
00000390: d79e f63c 5498 ca3d 4025 0d3d 3b39 843c
000003a0: 7674 993b e9bc a4bc 8d06 a33e c80d 9f3d
000003b0: 87bf c23d 1593 a53b d897 a73d 5aba c4bc
000003c0: 7b04 a33d 7ec1 c33b 3cc8 b83d f363 133d
000003d0: 756a 543d 4ad4 d93d 623d 183e 3743 d4bc
000003e0: e8bf 04bd c479 933d d912 b3ba 8cd1 313d
000003f0: 2661 a6bc e627 eebb 119e ef3c 385a 8f3d

fc3.weight f4 [144, 288]
0.04780754 0.007760141 0.058098357 0.024386827 -0.024526544 -0.032297343 0.04726361 -0.023572963
0.024744917 -0.04182385 -0.00967221 0.021983553 0.018352192 0.03733636 -0.050461903 0.0445677
0.007531848 0.051456925 0.05202577 -0.014598854 -0.02922046 -0.0022242665 0.044985246 0.017071623
0.010551151 0.0571358 0.010225136 -0.0063089393 0.0075210296 0.04601716 0.033120494 0.011345591
-0.049742047 0.040894937 -0.0012396313 -0.025448184 -0.052607697 -0.0010686107 0.042999227 -0.020337217
-0.0052639507 -0.04095837 -0.0024402663 -0.031469733 0.015810732 -0.051189933 -0.023935609 -0.004507892
0.009711999 0.024556074 -0.021183968 -0.004247617 -0.053514116 0.0026190616 0.011007819 0.027633969
0.034731556 -0.0108088255 0.033044416 -0.052775335 -0.0020497479 0.03700084 -0.04210159 -0.015134301
-0.046458 0.034917567 -0.050180145 -0.042645335 -0.028492674 0.0450429 0.01698165 0.014168661
-0.016821187 -0.033059105 -0.00050545856 -0.02145214 0.054862205 -0.022347074 0.0061158724 -0.05148766
0.017380927 -0.034797877 -0.029908283 0.006654147 -0.043870527 0.008816492 0.0107254945 0.0023435056
0.048672665 0.0253903 -0.026981689 0.0046640374 -0.0114268325 -0.0041720867 -0.0079264045 0.041024018
-0.0432183 -0.03428287 0.010401998 -0.010139849 0.035559412 0.03796803 -0.0020201392 0.046850305
0.01797222 0.018399972 0.013764922 0.052082 0.017686617 0.007467348 0.02219231 0.008720424
-0.008319352 0.0058971085 -0.020990688 0.034987334 -0.05089678 0.013864081 0.050736148 0.0028140321
-0.014503967 -0.0016310401 -0.0051389523 0.029063437 -0.023048382 0.021941703 0.007182952 0.05755068
0.015254077 -0.0128658675 0.0041995384 0.006175179 -0.043145306 0.048844304 0.019114908 -0.010142576
-0.0006591119 -0.021083027 0.01449677 -0.037725125 0.050622504 -0.0192816 -0.030013628 0.04518045
0.03596409 0.057178754 -0.035954162 -0.048792727 0.01740272 -0.04164698 0.055218372 -0.052013405
0.00018938631 -0.006967921 0.0071053915 -0.05015777 0.017577965 -0.034125417 0.048194785 0.024736699
0.009949949 -0.0058377236 -0.008635238 -0.025112342 0.029648226 -0.04087808 0.055661697 -0.01943779
-0.02778484 -0.012144987 0.0007902868 -0.042359896 0.02379572 -0.018828422 -0.053793836 0.047047045
-0.021424402 -0.011075903 0.024841513 0.03865912 -0.011658359 0.02856179 0.016931433 0.052948695
-0.008307986 0.018281762 -0.0068281814 -0.01666475 -0.014864631 0.054482084 0.051994864 0.023897823
-0.026331533 -0.03516321 -0.030697918 -0.051835384 0.039407242 -0.036461733 -0.016769283 0.040450145
0.016462158 0.028644416 0.029457968 -0.024163812 -0.0076225884 0.027723502 -0.049010906 -0.0126650445
-0.05376295 -0.00769569 0.029766168 -0.052590366 -0.037714347 -0.0055327304 0.024775859 0.01529428
0.01671977 0.051860083 0.042602297 0.050686415 0.052396353 -0.00017657503 0.05563887 0.02769697
0.031353597 0.025558006 0.029578906 0.031070907 0.021217737 0.017575268 0.010433938 -0.0013309009
0.017326023 0.031963337 0.022010077 -0.04541972 0.032035287 0.055057246 -0.009196471 0.0028736554
-0.053912066 -0.016576834 0.052930955 0.0135766305 0.03959116 0.031384703 0.019476715 0.05569687
-0.019547217 0.048919324 0.014330354 -0.033151597 0.026934933 0.046490993 0.0022095628 0.023195516
00000000: d7d1 433d c848 fe3b 8bf8 6d3d e2c6 c73c
00000010: e4eb c8bc 384a 04bd 7d97 413d 161c c1bc
00000020: dab5 ca3c 7c4f 2bbd 3078 1ebc da16 b43c
00000030: 5657 963c 03ee 183d 24b1 4ebd 9f8c 363d
00000040: b8cd f63b 7fc4 523d f918 553d 0830 6fbc
00000050: bf5f efbc 00c5 11bb 7342 383d cad9 8b3c
00000060: bcde 2c3c 3b07 6a3d 5487 273c 38bb cebb
00000070: f872 f63b 7d7c 3c3d 5ba9 073d dce2 393c
00000080: 51be 4bbd 7381 273d 207b a2ba b678 d0bc
00000090: 2b7b 57bd a010 8cba f51f 303d 3c9a a6bc
000000a0: 387d acbb f7c3 27bd e0ec 1fbb 68e6 00bd
000000b0: 8285 813c 89ac 51bd 9c14 c4bc f0b6 93bb
000000c0: 141f 1f3c d229 c93c 008a adbc 982f 8bbb
000000d0: 9e31 5bbd 90a4 2b3b 245a 343c a260 e23c
000000e0: ad42 0e3d 8017 31bc 9559 073d f32a 58bd
000000f0: 1055 06bb 318e 173d b872 2cbd dcf5 77bc
00000100: be4a 3ebd b905 0f3d b289 4dbd e0ac 2ebd
00000110: 7869 e9bc e77e 383d 1a1d 8b3c ac23 683c
00000120: 96cc 89bc fc68 07bd c080 04ba 66bc afbc
00000130: 31b7 603d 3611 b7bc a867 c83b b9e4 52bd
00000140: 7262 8e3c 3888 0ebd 3702 f5bc 080b da3b
00000150: 95b1 33bd 0c73 103c fcb9 2f3c 8095 193b
00000160: fd5c 473d 52ff cf3c b408 ddbc c8d4 983b
00000170: 9c37 3bbc 00b6 88bb c0dd 01bc cd08 283d
00000180: ac05 31bd 326c 0cbd 246d 2a3c 9c21 26bc
00000190: bfa6 113d 5d84 1b3d 5064 04bb 1be6 3f3d
000001a0: 7a3a 933c 8abb 963c 4486 613c ef53 553d
000001b0: 86e3 903c a8b0 f43b a6cc b53c 1ce0 0e3c
000001c0: e44d 08bc 883c c13b aaf4 abbc e14e 0f3d
000001d0: 2479 50bd 2c26 633c b5d0 4f3d a06b 383b
000001e0: 0ca2 6dbc a0c8 d5ba a864 a8bb 7216 ee3c
000001f0: f6cf bcbc 16bf b33c f85e eb3b 43ba 6b3d
00000200: 3cec 793c 5ccb 52bc 489c 893b 2859 ca3b
00000210: 22b9 30bd f710 483d de96 9c3c 0c2d 26bc
00000220: 40c8 2cba 50b6 acbc dc83 6d3c a985 1abd
00000230: 8b59 4f3d 72f4 9dbc 24df f5bc 230f 393d
00000240: 154f 133d 4534 6a3d ac44 13bd e2da 47bd
00000250: 2690 8e3c 0696 2abd a92c 623d 020c 55bd
00000260: 0096 4639 2853 e4bb 58d4 e83b 3c72 4dbd
00000270: aaff 8f3c 18c7 0bbd e567 453d 9ea4 ca3c
00000280: 1c05 233c 604a bfbb d07a 0dbc 66b8 cdbc
00000290: d6e0 f23c c66f 27bd 85fd 633d 003c 9fbc
000002a0: 089d e3bc c4fb 46bc 402b 4f3a 9281 2dbd
000002b0: 3eef c23c 103e 9abc ed56 5cbd 67b4 403d
000002c0: 3a82 afbc b477 35bc 6e80 cb3c 0759 1e3d
000002d0: b402 3fbc 6afa e93c cab3 8a3c bbe0 583d
000002e0: 381e 08bc a2c3 953c f0be dfbb 8484 88bc
000002f0: c88a 73bc 9b28 5f3d 91f8 543d 5ec5 c33c
00000300: 3ab5 d7bc 4c07 10bd 337a fbbc 5751 54bd
00000310: 7d69 213d e658 15bd bc5f 89bc 0daf 253d
00000320: a6db 863c b2a7 ea3c d651 f13c 30f3 c5bc
00000330: e8c6 f9bb 661c e33c a9bf 48bd 0c81 4fbc
00000340: 8a36 5cbd 202c fcbb 2ed8 f33c ff68 57bd
00000350: 5c7a 1abd e84b b5bb bef6 ca3c dc94 7a3c
00000360: e6f7 883c 3d6b 543d bf7f 2e3d 8f9c 4f3d
00000370: 8f9d 563d 0027 39b9 95e5 633d c2e4 e23c
00000380: a16c 003d 065f d13c 764f f23c 6a88 fe3c
00000390: d2d0 ad3c 02fa 8f3c 1cf3 2a3c a071 aeba
000003a0: 4eef 8d3c fdeb 023d 7a4e b43c 070a 3abd
000003b0: 6f37 033d b583 613d ccac 16bc f053 3c3b
000003c0: e6d2 5cbd 24cc 87bc 21ce 583d 8470 5e3c
000003d0: 572a 223d 3f8d 003d a28d 9f3c 6722 643d
000003e0: 7c21 a0bc a15f 483d dcc9 6a3c f8c9 07bd
000003f0: a6a6 dc3c 576d 3e3d 50ce 103b 8604 be3c

fc3.bias f4 [144]
-0.016719576 -0.05416056 0.031682987 0.015017536 0.03311329 0.048500624 0.03925718 0.0030026063
-0.055601332 -0.026744783 0.0072197355 -0.040760413 0.027734358 -0.031331256 0.030390989 -0.0061590523
0.00012592599 0.0432836 0.04717802 0.04732131 -0.032012098 0.042873975 0.03742191 0.04203886
-0.05679727 -0.050580777 -0.026084375 -0.057214025 -0.018817674 -0.015719257 -0.056835413 0.020724539
-0.04706998 0.031024467 -0.019558955 -0.042894907 0.04917707 0.02697618 -0.055117816 -0.025385287
0.05225439 -0.002452232 0.058160055 -0.047459472 -0.027193386 -0.034132652 0.056621995 0.01681402
-0.051304318 0.04957186 -0.049878933 0.044560675 0.013642814 -0.0521235 0.043217186 -0.046210106
-0.05700046 0.026979897 0.028723735 -0.033609226 -0.008947376 -0.043608177 -0.042285025 -0.004330218
-0.007092297 -0.021423038 -0.015682012 -0.003957253 -0.054772757 -0.020175915 -0.05707746 0.03912748
0.011419978 0.05816104 0.02353732 0.014085572 0.048425738 -0.015997272 -0.054649044 -0.024057597
0.05841184 0.032347906 -0.036614835 0.013988536 0.03115454 -0.035841323 0.05597811 -0.04037826
0.041142095 0.04567847 -0.041020475 0.045792323 0.00978804 0.014835637 0.05364574 0.007963683
-0.005804464 -0.007530637 0.006551247 0.036608797 -0.046348188 -0.018821124 0.009249862 -0.04896085
-0.0056698173 0.010376621 -0.03255124 0.034373622 0.0545153 0.056699354 0.04023088 0.051667105
0.023870874 0.006480176 -0.049740847 0.010359053 0.013788763 0.041771922 -0.013126515 0.0062914975
0.018319096 0.005764175 0.041947167 0.013125505 -0.043336295 0.007863093 -0.024071645 0.05673037
-0.023604672 -0.047261804 -0.007646948 0.03540392 0.013246167 0.01429211 0.052315507 -0.018323224
-0.057559937 0.021601949 0.01974048 -0.0035498552 -0.03127323 0.014856789 -0.016922794 0.012982246
00000000: 7ef7 88bc 77d7 5dbd 05c6 013d 1c0c 763c
00000010: cda1 073d 97a8 463d 23cc 203d 60c7 443b
00000020: 39be 63bd e017 dbbc 8893 ec3b 64f4 26bd
00000030: 2a33 e33c 3455 00bd 86f6 f83c e0d1 c9bb
00000040: 000b 0439 254a 313d bd3d 413d fdd3 413d
00000050: 1e1f 03bd 9f9c 2f3d b747 193d f130 2c3d
00000060: 41a4 68bd ca2d 4fbd e6ae d5bc 4159 6abd
00000070: 8627 9abc acc5 80bc 40cc 68bd 82c6 a93c
00000080: 74cc 40bd 0627 fe3c 1a3a a0bc 92b2 2fbd
00000090: e56d 493d 26fd dc3c 38c3 61bd cef4 cfbc
000000a0: b308 563d a0b5 20bb 3d39 6e3d dd64 42bd
000000b0: aac4 debc aece 0bbd 77ec 673d 8ebd 893c
000000c0: 7a24 52bd dd0b 4b3d da4d 4cbd 4185 363d
000000d0: 1c86 5f3c 737f 55bd 8104 313d cf46 3dbd
000000e0: 5079 69bd f204 dd3c 0a4e eb3c d4a9 09bd
000000f0: 0498 12bc 7d9e 32bd 1033 2dbd 80e4 8dbb
00000100: 8066 e8bb 5e7f afbc 9077 80bc d8ab 81bb
00000110: 6659 60bd f647 a5bc 0eca 69bd 2344 203d
00000120: dc1a 3b3c 453a 6e3d 56d1 c03c 2cc7 663c
00000130: 115a 463d b60c 83bc add7 5fbd 7014 c5bc
00000140: 4141 6f3d 3d7f 043d 70f9 15bd 2c30 653c
00000150: ce37 ff3c 5ace 12bd 4d49 653d ad63 25bd
00000160: 9d84 283d 5919 3b3d 1605 28bd bb90 3b3d
00000170: 045e 203c 2c11 733c a3bb 5b3d 1c7a 023c
00000180: 6033 bebb 90c3 f6bb d8ab d63b 1bf3 153d
00000190: 99d7 3dbd c22e 9abc bc8c 173c 2c8b 48bd
000001a0: e0c9 b9bb b402 2a3c 7354 05bd 5bcb 0c3d
000001b0: 6f4b 5f3d 953d 683d 23c9 243d e3a0 533d
000001c0: da8c c33c a857 d43b 0fbd 4bbd 04b9 293c
000001d0: 44ea 613c 0919 2b3d 9810 57bc e828 ce3b
000001e0: ee11 963c 68e1 bc3b cbd0 2b3d 5c0c 573c
000001f0: 6681 31bd 34d4 003c e631 c5bc 1b5e 683d
00000200: 965e c1bc 9895 41bd 4093 fabb b303 113d
00000210: 7406 593c 7429 6a3c c948 563d 961a 96bc
00000220: f8c3 6bbd 92f6 b03c cab6 a13c b0a4 68bb
00000230: 5c18 00bd e469 733c aca1 8abc 7cb3 543c

fc4.weight f4 [4, 144]
-0.07313755 0.070647426 -0.0007670149 -0.04164385 0.02643931 -0.027785998 -0.04070404 -0.016793072
0.0023112819 0.003151603 -0.07272645 -0.012403347 0.05434268 -0.073146656 -0.0391061 -0.06936312
-0.026262771 0.070326604 -0.042782824 -0.07960548 -0.007848911 0.05636651 0.06340677 -0.005815476
0.056503512 -0.0068547353 0.014397107 0.050020806 0.08100293 -0.07592805 0.022045858 0.040186882
-0.06339115 -0.035773605 0.055637203 -0.010848351 -0.041735463 -0.004113257 -0.08052896 0.06727838
-0.057293773 0.04168331 0.033707 0.04483924 0.0108779 0.014524855 -0.066731974 -0.023997806
-0.076625876 0.034133874 -0.00080913305 0.030587308 0.07497469 -0.0452065 -0.058426958 0.013678126
-0.07758674 0.048842914 -0.06896436 0.049006768 -0.008893706 0.072064735 0.056597196 0.07259644
-0.08117181 -0.06910114 0.081380405 -0.0705701 0.013794117 -0.018306963 -0.021727663 0.019388892
0.021135367 -0.033372104 -0.061908036 0.039215557 -0.0112243965 -0.013653517 -0.017136388 0.07808889
0.08330277 0.027472876 0.076354824 0.043262742 -0.07804792 -0.03734445 -0.032995254 0.014353447
0.05149836 -0.029444508 -0.05568899 0.0382483 -0.023365151 0.04736633 -0.052358996 0.001989223
0.041162215 -0.07601103 0.049433716 0.008117229 -0.012280792 -0.079998486 -0.014293127 0.016825266
-0.07758048 0.035705246 -0.020914983 -0.029813945 -0.048228156 -0.06543943 0.07626698 0.043258153
-0.029482752 0.017454006 0.07526339 -0.07682207 -0.059740126 -0.07095638 -0.022461694 0.04715296
-0.06455606 0.06385297 -0.03250158 0.055536367 -0.014563687 -0.0475399 0.04063698 0.05540449
0.027774565 0.008884519 -0.036201548 -0.049552392 0.05250909 -0.015255094 -0.055858463 0.0617856
-0.0826913 0.054072194 0.005035363 -0.03741443 0.039525457 -0.056979448 -0.033508264 0.023581594
-0.014014952 -0.05098983 0.032773696 0.045859583 0.065581284 -0.058635384 0.04280425 0.007741876
0.008893676 0.08172489 0.025495537 0.0016928613 -0.0065060332 -0.016699225 -0.052862756 0.03086958
-0.026311278 -0.06579685 -0.037089974 -0.044367336 -0.0631562 -0.06787859 0.052077033 -0.06559643
0.011191465 0.0051257685 -0.044734657 -0.0020243824 -0.01477664 0.00793016 -0.06602043 0.022996329
0.0725236 -0.05502987 0.06005589 -0.0057862923 0.06619016 0.0785873 -0.018055826 0.0005906746
0.04819434 -0.0028687492 -0.045913696 0.046740375 0.082591735 -0.082356915 0.015337251 0.045363702
-0.07288323 -0.039215647 -0.07607517 0.023296483 0.009781711 -0.051681034 -0.0717815 0.0078009367
0.07174478 -0.07054745 -0.073244296 -0.033434015 0.08005967 -0.016299613 0.053395607 -0.011730671
-0.06605221 0.017077506 0.073490836 0.03371346 -0.009566009 -0.06566933 -0.08306655 0.041570865
0.060193487 -0.07474076 -0.07803479 0.044546403 0.048774533 -0.036626212 0.027310275 0.03770516
0.049257644 0.05509723 -0.01960399 -0.06890595 -0.0718865 0.005168803 0.04846189 -0.032088995
-0.008687086 -0.05723706 -0.0026970878 0.015381329 0.07017975 0.07086808 -0.049891155 0.06265048
0.04057338 -0.0685557 0.040238224 -0.045101933 0.013308547 0.05631616 0.041355856 0.053536125
-0.044784736 -0.024628006 -0.015726529 0.048784308 -0.020820148 -0.022615187 -0.06401431 0.028164573
00000000: 24c9 95bd 99af 903d 8011 49ba be92 2abd
00000010: 4097 d83c 769f e3bc 48b9 26bd a091 89bc
00000020: e078 173b 208b 4e3b 9bf1 94bd 6837 4bbc
00000030: 6e96 5e3d eacd 95bd b82d 20bd 400e 8ebd
00000040: 0625 d7bc 6507 903d 0b3d 2fbd 3308 a3bd
00000050: b898 00bc 92e0 663d 69db 813d c08f bebb
00000060: 3a70 673d b09d e0bb d8e1 6b3c 9ee2 4c3d
00000070: dde4 a53d 2a80 9bbd 8499 b43c 009b 243d
00000080: 38d3 81bd 5887 12bd d6e3 633d 48bd 31bc
00000090: cef2 2abd 80c8 86bb 5eec a4bd 3fc9 893d
000000a0: e0ac 6abd 1ebc 2a3d 5a10 0a3d 5aa9 373d
000000b0: 3839 323c a8f9 6d3c c6aa 88bd 0c97 c4bc
000000c0: 07ee 9cbd f6cf 0b3d 001c 54ba 3c92 fa3c
000000d0: 558c 993d 732a 39bd 1b51 6fbd 381a 603c
000000e0: cce5 9ebd 820f 483d 303d 8dbd 52bb 483d
000000f0: e8b6 11bc ad96 933d 76d2 673d 71ad 943d
00000100: 683d a6bd e684 8dbd c5aa a63d 0e87 90bd
00000110: b800 623c 7cf8 95bc 36fe b1bc 74d5 9e3c
00000120: 1424 ad3c 30b1 08bd 4893 7dbd 7ea0 203d
00000130: 88e6 37bc 00b3 5fbc 9c61 8cbc 11ed 9f3d
00000140: a59a aa3d cc0e e13c eb5f 9c3d 4634 313d
00000150: 96d7 9fbd 7ef6 18bd 0826 07bd b82a 6b3c
00000160: f2ef 523d 9c35 f1bc 231a 64bd 40aa 1c3d
00000170: 4668 bfbc 3203 423d 6376 56bd a05d 023b
00000180: b699 283d acab 9bbd 027b 4a3d 20fe 043c
00000190: 6035 49bc 3fd6 a3bd b82d 6abc 24d5 893c
000001a0: 84e2 9ebd aa3f 123d e655 abbc 603c f4bc
000001b0: e38a 45bd 1c05 86bd dd31 9c3d 762f 313d
000001c0: d085 f1bc b4fb 8e3c b123 9a3d e454 9dbd
000001d0: 10b2 74bd 9451 91bd 9601 b8bc 7623 413d
000001e0: f835 84bd 59c5 823d 6020 05bd 1a7a 633d
000001f0: 889c 6ebc 33b9 42bd f672 263d d2ef 623d
00000200: 7c87 e33c 6090 113c 1348 14bd 73f7 4abd
00000210: c613 573d 80f0 79bc d8cb 64bd e612 7d3d
00000220: 0e5a a9bd ce7a 5d3d b0ff a43b e03f 19bd
00000230: 72e5 213d 4863 69bd f63f 09bd 302e c13c
00000240: f89e 65bc b6da 50bd b63d 063d 42d7 3b3d
00000250: 7b4f 863d a82b 70bd 8253 2f3d 90af fd3b
00000260: c8b6 113c 615f a73d 04dc d03c 00e3 dd3a
00000270: 9030 d5bb d0cc 88bc 9e86 58bd 34e2 fc3c
00000280: c08a d7bc 80c0 86bd a8eb 17bd 86ba 35bd
00000290: 0a58 81bd ee03 8bbd ba4e 553d 6c57 86bd
000002a0: 685c 373c 10f6 a73b b03b 37bd 80ab 04bb
000002b0: b819 72bc 80ed 013c b835 87bd cc62 bc3c
000002c0: 4187 943d 0067 61bd 2afd 753d f09a bdbb
000002d0: b58e 873d 61f2 a03d d0e9 93bc 80d7 1a3a
000002e0: 6e67 453d a001 3cbb 0010 3cbd d672 3f3d
000002f0: db25 a93d beaa a8bd 1849 7b3c 4acf 393d
00000300: ce43 95bd 96a0 20bd 4ccd 9bbd 44d8 be3c
00000310: 7843 203c 7eaf 53bd 2e02 93bd 009f ff3b
00000320: edee 923d 2e7b 90bd 1b01 96bd 1bf2 08bd
00000330: 53f6 a33d c486 85bc 5ab5 5a3d 0032 40bc
00000340: 6246 87bd 20e6 8b3c 5d82 963d 2017 0a3d
00000350: c0ba 1cbc a47d 86bd cc1e aabd 3646 2a3d
00000360: 728d 763d af11 99bd b4d0 9fbd 4a76 363d
00000370: cec7 473d 5e05 16bd ccb9 df3c ba70 1a3d
00000380: 62c2 493d a2ad 613d 8c98 a0bc 901e 8dbd
00000390: 3b39 93bd 105f a93b fa7f 463d c06f 03bd
000003a0: 4854 0ebc 6871 6abd a0c1 30bb f801 7c3c
000003b0: 67ba 8f3d 4923 913d ab5a 4cbd e54e 803d
000003c0: 4630 263d ee66 8cbd d6d0 243d cebc 38bd
000003d0: 180c 5a3c c6ab 663d c264 293d b248 5b3d
000003e0: 3370 37bd acc0 c9bc ecd4 80bc 0ed2 473d
000003f0: 048f aabc 7c43 b9bc ef19 83bd 64b9 e63c

fc4.bias f4 [4]
-0.0047876313 -0.049446702 0.021143138 -0.08079677
00000000: 90e1 9cbb a088 4abd 6034 ad3c c778 a5bd

fc5.weight f4 [4, 288]
-0.31521446 0.047859404 -0.34622857 -0.023773618 -0.2365532 -0.21597768 -0.11711175 -0.12332747
0.28396022 -0.18492873 -0.25807157 0.010717648 -0.03355983 -0.051815078 -0.013234984 -0.26935843
-0.22064324 0.02760372 -0.2550673 -0.30429783 -0.06473769 0.23646955 -0.12812276 -0.2670024
-0.2836221 -0.2176177 0.39920896 -0.540565 0.1854019 -0.041469842 -0.22306709 -0.65088683
-0.1469907 -0.1999128 -0.35135406 -0.25303003 -0.115736924 -0.21881506 -0.017760571 -0.26535848
-0.24533036 -0.409726 -0.52617574 -0.20090489 -0.15807465 0.018270664 0.041153114 -0.13265827
-0.2350654 0.6842848 -0.1911133 0.044461213 -0.20041223 0.012991805 0.019484978 -0.31401855
-0.3751611 -0.23498148 0.7337953 0.025994645 0.019239943 -0.22512409 -0.033650275 0.018403461
0.04891456 0.4163128 -0.14317109 0.051603932 0.03061463 -0.31975207 0.37744105 -0.027764462
-0.24965009 -0.23159464 -0.22118802 -0.29125452 0.0030979908 0.069880515 0.02700301 -0.2072874
-0.043047734 0.47760975 0.047225446 0.023536744 -0.2840884 -0.4453575 -0.19194347 -0.015057143
-0.45602915 -0.37414294 -0.26810494 -0.14771828 0.2553058 -0.55977196 0.42025852 -0.40461114
-0.28072673 0.13138407 -0.11404354 -0.06712344 -0.25838202 0.19342323 -0.24297303 -0.28775653
-0.30209497 0.39605004 0.039353326 0.48776942 -0.26601171 -0.12903959 -0.31533796 0.46045783
0.03817672 -0.19045497 -0.20929198 -0.3608195 -0.09850201 0.0058520697 0.16560581 -0.22908959
-0.2946429 -0.26986378 0.06520557 0.00612263 0.043393042 -0.33111677 -0.011775008 -0.5660006
-0.18747975 -0.026152268 -0.03185085 -0.005796273 -0.0017634598 -0.18909304 -0.29754233 -0.33910382
-0.101434164 -0.1559636 -0.090872854 -0.13798952 -0.021062303 0.0023190528 -0.17787637 -0.22541821
-0.15885654 -0.20849447 -0.19266877 0.5144171 0.020159034 -0.053439487 0.6665682 -0.47303444
0.49532545 -0.009545375 -0.46319193 -0.19500524 -0.16373135 -0.24067266 0.23241812 -0.24255615
0.034624875 0.049807854 -0.326277 -0.15671144 0.516863 0.74612695 -0.18385826 -0.37669438
-0.2724967 0.022810038 0.024220746 -0.17907202 -0.21077982 -0.39597267 -0.29936627 0.019583689
-0.0046697557 -0.16428944 -0.22835848 -0.013898838 0.03612686 -0.14330013 -0.33150217 0.5344556
-0.1915499 -0.17815696 -0.21947226 -0.17652653 -0.17147392 0.19868149 0.04347034 -0.25760987
-0.24319865 0.58604836 -0.33667088 -0.21505438 0.032018807 0.018037533 0.0054071136 -0.17797858
0.037898365 0.06778521 0.2646347 0.31542125 -0.19261643 -0.020156506 0.032954223 -0.44557238
-0.0066147624 0.3984969 -0.14175284 0.057400424 -0.1349224 0.037423663 -0.08306462 -0.2674698
-0.2902063 0.041101653 0.123123676 -0.00012269588 -0.3243161 0.078465454 0.296186 -0.5641399
-0.3366484 -0.18609919 -0.25903672 -0.22311185 -0.25920516 -0.2808869 -0.19014218 -0.16402414
0.042811275 0.03753848 0.23900543 -0.33149666 -0.19713509 0.54283684 -0.17520553 0.6208677
-0.13243972 -0.21313483 -0.3658328 -0.2434246 -0.4983068 -0.14862256 0.16824833 -0.24023639
-0.19350089 -0.58644557 0.057368215 -0.2093098 -0.11550054 -0.027870439 -0.18085404 -0.21319717
00000000: ca63 a1be 3908 443d df44 b1be e4c0 c2bc
00000010: 013b 72be 4129 5dbe 49d8 efbd 1d93 fcbd
00000020: 3c63 913e f55d 3dbe f521 84be 1399 2f3c
00000030: 0876 09bd 0c3c 54bd 8cd7 58bc 59e9 89be
00000040: 4df0 61be 3221 e23c 2e98 82be edcc 9bbe
00000050: 3295 84bd 1325 723e 9d32 03be 8ab4 88be
00000060: ea36 91be 2dd7 5ebe 1e65 cc3e 7862 0abf
00000070: ffd9 3d3e 48dc 29bd b36b 64be 85a0 26bf
00000080: bb84 16be f1b5 4cbe aee4 b3be 278d 81be
00000090: 7b07 edbd 0e11 60be 9e7e 91bc 11dd 87be
000000a0: e237 7bbe 9bc7 d1be 74b3 06bf 03ba 4dbe
000000b0: 52de 21be 5cac 953c 2b90 283d 92d7 07be
000000c0: fcb4 70be 4a2d 2f3f 34b3 43be f61c 363d
000000d0: dd38 4dbe 94db 543c f69e 9f3c 0ac7 a0be
000000e0: 1e15 c0be fc9e 70be 02da 3b3f b9f2 d43c
000000f0: 169d 9d3c ee86 66be dfd4 09bd dbc2 963c
00000100: a25a 483d f426 d53e 719b 12be a55e 533d
00000110: 88cb fa3c 8bb6 a3be f43f c13e 4c72 e3bc
00000120: 46a4 7fbe 2527 6dbe 1d7f 62be 501f 95be
00000130: a907 4b3b 841d 8f3d 6b35 dd3c 2643 54be
00000140: d252 30bd 4489 f43e 786f 413d 21d0 c03c
00000150: 0974 91be e605 e4be d48c 44be 3cb2 76bc
00000160: a77c e9be aa8f bfbe 0d45 89be 7643 17be
00000170: 71b7 823e 374d 0fbf 202c d73e 3129 cfbe
00000180: 6abb 8fbe 8c89 063e a98f e9bd 0478 89bd
00000190: a64a 84be bd10 463e eccd 78be d354 93be
000001a0: 31ac 9abe 12c7 ca3e f430 213d eabc f93e
000001b0: b032 88be f422 04be fa73 a1be 21c1 eb3e
000001c0: 315f 1c3d a106 43be a350 56be 55bd b8be
000001d0: 6cbb c9bd b8c2 bf3b 9294 293e 7696 6abe
000001e0: 6fdb 96be 962b 8abe 7f8a 853d 58a0 c83b
000001f0: e7bc 313d 2388 a9be f7eb 40bc 6ae5 10bf
00000200: b1fa 3fbe 483d d6bc 0976 02bd a9ee bdbb
00000210: e423 e7ba 9ba1 41be 7857 98be 049f adbe
00000220: b7bc cfbd ecb4 1fbe 8c1b babd 204d 0dbe
00000230: da8a acbc 40fb 173b 3925 36be 08d4 66be
00000240: 4aab 22be 937f 55be f64a 45be d7b0 033f
00000250: 8f24 a53c 5de3 5abd 37a4 2a3f 9231 f2be
00000260: 4c9b fd3e 3464 1cbc 7e27 edbe 74af 47be
00000270: 31a9 27be e572 76be 04ff 6d3e a460 78be
00000280: d0d2 0d3d 5203 4c3d c70d a7be f778 20be
00000290: 2251 043f 2d02 3f3f 5745 3cbe 16de c0be
000002a0: b084 8bbe 1edc ba3c 966a c63c a85e 37be
000002b0: aad6 57be eebc cabe 8946 99be f96d a03c
000002c0: c004 99bb 7e3b 28be ced6 69be f4b7 63bc
000002d0: c2f9 133d 45bd 12be a7ba a9be 15d2 083f
000002e0: a825 44be c76e 36be 56bd 60be 5fc3 34be
000002f0: dc96 2fbe 2973 4b3e f50d 323d 71e5 83be
00000300: 1109 79be 4407 163f 2060 acbe 3737 5cbe
00000310: 2726 033d 73c3 933c 282e b13b 0440 36be
00000320: 513b 1b3d f9d2 8a3d 337e 873e e57e a13e
00000330: 3e3d 45be 421f a5bc 02fb 063d 1022 e4be
00000340: a6c0 d8bb c907 cc3e a827 11be b51c 6b3d
00000350: 1929 0abe 8e49 193d c91d aabd cdf1 88be
00000360: ec95 94be 355a 283d 4428 fc3d eda7 00b9
00000370: c30c a6be 7fb2 a03d b1a5 973e 796b 10bf
00000380: 2e5d acbe c990 3ebe 76a0 84be 6f77 64be
00000390: 8ab6 84be 68d0 8fbe a2b4 42be f2f5 27be
000003a0: e05a 2f3d f3c1 193d d7bd 743e eeb9 a9be
000003b0: c8dd 49be 5bf7 0a3f 1469 33be 30f1 1e3f
000003c0: 479e 07be 0440 5abe 704e bbbe 4c44 79be
000003d0: 1222 ffbe 8330 18be 4a49 2c3e 8700 76be
000003e0: 1925 46be 4c21 16bf effa 6a3d 4f55 56be
000003f0: 8c8b ecbd 8c50 e4bc cd31 39be 5c50 5abe

fc5.bias f4 [4]
0.112488225 0.05767193 0.09547999 0.09881754
00000000: 3a60 e63d 6739 6c3d 038b c33d da60 ca3d
