Soumission/discrete_unstable.pt (torch, 862123 bytes, 10 tensors)

fc1.weight f4 [576, 8]
000000 a5 7d 3f bf 90 54 3e 3e 89 ec 2a 3f d3 9c 78 3e
       -0.74801093 0.18586946 0.66767174 0.24278574
000010 fd 18 49 bf 35 b1 b9 be 64 00 d3 bd f8 67 ca bd
       -0.78553754 -0.3626801 -0.10302809 -0.09883112
000020 91 43 d8 bd fc f1 54 bf f3 4d aa 3e 96 c3 6a 3f
       -0.10559762 -0.8318174 0.33262596 0.9170469
000030 98 f6 d6 be 19 78 fc 3d ab 08 59 be 8d 0b 97 bd
       -0.4198501 0.12327594 -0.21194713 -0.0737525
000040 81 87 09 bf 62 30 52 3f fc b8 10 3f f2 e5 f9 3e
       -0.5372239 0.82105076 0.56532264 0.48808247
000050 09 65 f9 be 10 8a a7 be cd 11 99 3b ea f1 c0 be
       -0.48709896 -0.3272252 0.0046713115 -0.37684566
000060 c8 3a b8 3e 3d 7a 33 bd 6f cf 39 bf 70 d9 b4 be
       0.35982347 -0.043817747 -0.72582144 -0.35322142
000070 5b 81 9f be 56 41 fb 3c b4 2d a6 3e 5c f4 a1 bd
       -0.31153378 0.030670803 0.32456744 -0.07907936
000080 bf a2 20 3f 9a 2b 17 c0 f0 ef 1d be 9b f9 ce be
       0.6274833 -2.3620362 -0.1542356 -0.4042481
000090 62 a0 d0 be 08 62 3c 3d a7 f4 ad 3d 78 54 1a 3e
       -0.40747362 0.045991927 0.08493929 0.15071285
0000a0 55 19 be be 10 b7 3b bf f1 18 47 be 48 01 2a bd
       -0.37128702 -0.73326206 -0.19443108 -0.04150513
0000b0 32 1d 34 3e 48 f7 03 bf 16 3e 0c 3e c9 5a a9 be
       0.17589262 -0.51549196 0.13695559 -0.33077076
0000c0 55 78 98 3d 50 e2 d5 be ce 7a eb bd ce 29 bf bb
       0.074448265 -0.41774225 -0.114980325 -0.005833841
0000d0 4e 8a af 3e 8e 8b 39 3c d4 84 a8 3e 79 0c 15 be
       0.34285206 0.011324776 0.3291384 -0.14555539
0000e0 96 e5 2c bf b1 a7 b4 bd 52 3a 06 bf 94 90 af 3e
       -0.6753782 -0.08821047 -0.5243274 0.34289992
0000f0 13 a3 1d 3f 0b bd 0e be f8 56 b4 3c 9f a8 67 be
       0.61576957 -0.13939302 0.022014126 -0.22622918
000100 ed cf 4c bf 4d ec 27 be 4e aa b7 3e 9b 9d 7d be
       -0.8000477 -0.16398735 0.3587212 -0.24767153
000110 52 6c 02 3f c5 f0 48 be 6e ca c7 bd b4 e9 44 3e
       0.50946534 -0.19623096 -0.09755407 0.19229776
000120 bb c7 a6 be 1b 98 0e 3f 4f cf b6 3e 42 e9 75 be
       -0.32574257 0.55700845 0.3570504 -0.24014762
000130 a7 6b 23 3e 1f ee 8d 3e dc 19 93 be 89 c7 f0 be
       0.15959035 0.27720734 -0.28730667 -0.47027233
000140 70 a1 c7 be ca de 67 3e fb 66 01 bf c3 ff f2 be
       -0.38990355 0.22643581 -0.5054776 -0.47460756
000150 65 c7 fa 3e af f1 c2 be 59 42 38 be 9d a9 1b bf
       0.4898025 -0.38075015 -0.1799406 -0.60805684
000160 e6 57 0c bf df ae c8 bf 63 09 d7 3e f8 33 32 bf
       -0.5482162 -1.5678366 0.4199935 -0.6961055
000170 54 33 17 be 0c 5f 85 be ca 39 12 3c d7 60 bc 3d
       -0.14765674 -0.26049078 0.008924911 0.09198158
000180 9d 42 64 be 46 3c dd be f3 10 87 be b8 32 75 be
       -0.22291036 -0.43210047 -0.2638012 -0.23945129
000190 d6 7b 9e 3d 7b 19 53 3e 23 82 ce 3e 6d 02 9d 3d
       0.077384636 0.20615189 0.4033366 0.07666478
0001a0 ed 4b 58 3e 9e 0b 68 bf 54 c6 30 be 98 39 11 bb
       0.21122713 -0.90642726 -0.17263156 -0.0022159573
0001b0 8d 06 5f 3e b7 a2 29 3d f6 70 17 bc 89 03 1d be
       0.21779843 0.041414943 -0.009243241 -0.1533338
0001c0 d3 65 4d 3e b1 c7 47 bf 2a 09 7f bd 35 2b a5 be
       0.20058374 -0.7803908 -0.0622646 -0.32259527
0001d0 12 0a ca 3c 45 40 63 3e 8a f8 ef bd 8a d5 da be
       0.024663005 0.22192486 -0.11717327 -0.42741042
0001e0 da bd 02 bf fe 57 bc bf ac 7c 10 be 18 69 33 bf
       -0.5107094 -1.4714353 -0.14110059 -0.70082235
0001f0 29 21 ee bd b6 9b 99 be a5 2d 2a 3e fe 2f 63 be
       -0.116274185 -0.3000161 0.16618975 -0.22186276
000200 53 bd c7 be 10 74 8e 3f de 53 8c 3d 5f 8f 4f 3e
       -0.3901163 1.112917 0.06851934 0.20269535
000210 8f 66 10 3f a7 4a e1 3d 4b 24 b5 be 5f e7 8d 3a
       0.5640649 0.11000567 -0.35379252 0.00108264
000220 13 01 a3 3e aa ee 5c 3f d3 a2 f9 3e ba ed 0b bf
       0.31836757 0.8630167 0.48757038 -0.54659617
000230 35 29 3a bf e9 a3 31 3e 3f 1d a9 bd 61 a0 1f be
       -0.72719127 0.17347683 -0.082575314 -0.15588523
000240 0e de a8 3e ce 24 8c be 62 e9 b6 3d 54 a7 82 3e
       0.32981914 -0.2737183 0.08931233 0.25518286
000250 73 8a 0c be b8 5c ae 3e fa f2 d3 bd 03 fc 0f 3f
       -0.13724689 0.34055114 -0.103490785 0.56243914
000260 a5 18 01 3f 53 74 da bf 90 56 aa bd 57 0d 6f bf
       0.5042823 -1.7066749 -0.08317292 -0.9337973
000270 25 b8 4b 3e 0b 79 23 3e fc e5 6c 3e 93 7d b1 3d
       0.19894464 0.15964143 0.23134607 0.086665295
000280 86 40 61 bb 5e d1 4d bf 0a b1 e9 be 62 48 39 3d
       -0.0034370734 -0.80397594 -0.45642883 0.045235045
000290 2c 8e 19 3e 9f a5 0c bf 67 98 6c 3e 9f 4c 4f 3e
       0.1499564 -0.5494022 0.23105012 0.20244072
0002a0 ad df b6 3e c6 52 49 bf 5c 6c 63 3d 02 13 2a 3e
       0.35717526 -0.7864193 0.05552326 0.16608813
0002b0 c8 7a a7 bd 46 f8 fb bc bb 94 35 3e 6e ff 15 3e
       -0.081777155 -0.030758034 0.17732517 0.1464822
0002c0 d9 68 86 bc 69 43 56 3e e3 91 33 3f c6 9a 8e be
       -0.016407417 0.20924152 0.7014448 -0.27852458
0002d0 b5 bf e0 3e 63 54 27 bf 7c 76 9c 3e 2c d0 ca be
       0.4389626 -0.6536314 0.30559146 -0.39611948
0002e0 bb 8e 67 3d bf 43 d0 3e e4 8a ce 3e 0d d4 fd be
       0.056532603 0.40676686 0.4034034 -0.49575844
0002f0 d7 5e 50 3e 04 dd 71 bf 5f 0d 32 3d 62 07 6d 3d
       0.20348679 -0.9447787 0.043469783 0.05786837
000300 61 f5 91 3e 3a 10 d1 bf 27 a3 d9 3e e7 6e b1 bc
       0.28507522 -1.6333077 0.42507288 -0.021659328
000310 89 66 e4 3d 9f 40 d5 ba 0d 26 b2 3e 0a 45 eb bd
       0.111523695 -0.0016269869 0.34794655 -0.114877775
000320 85 be 1a bd ef 14 3e 3f 2b 2d 66 3e 9b 49 5a 3e
       -0.03777935 0.7425069 0.22478168 0.21317141
000330 7e 9c 24 bd d8 a7 3c bf 01 be 43 bd de 50 84 bd
       -0.040188305 -0.7369361 -0.047788624 -0.06460737
000340 5a 54 34 bf c1 aa 4b bf 2c 65 5e bf b8 9e b8 3e
       -0.7044121 -0.79557425 -0.86873126 0.36058593
000350 76 28 9b be e4 5f 28 3e c9 dd a5 bc 74 83 61 3d
       -0.30304307 0.1644283 -0.020247357 0.055057004
000360 71 db 74 3e ec 4e 55 be ff 7f b0 be b5 84 5d 3f
       0.23911835 -0.20830888 -0.34472653 0.8653062
000370 bf f8 5b be 74 07 55 3e 03 0d 72 3e 19 06 8f 3e
       -0.21481608 0.20803624 0.23637776 0.2793434
000380 93 53 81 bf 38 55 01 3e 11 df aa 3e 14 ae 50 bf
       -1.010363 0.12630165 0.3337331 -0.8151562
000390 94 68 e2 be f5 10 dd bd 28 24 24 3e ac 3d 8c 3e
       -0.44220412 -0.1079425 0.16029418 0.27390802
0003a0 5b 18 2f 3f c9 7c 91 bd ad 01 aa bd 69 92 bb 3d
       0.6839654 -0.07103879 -0.08301101 0.09158785
0003b0 57 2b 3d bf d1 4b 1c bf a3 c6 23 3c 22 b3 01 3e
       -0.73894256 -0.61053187 0.009996089 0.1266599
0003c0 04 a2 3d bf 40 f2 d3 be 1b 79 26 bf 5a 37 13 3e
       -0.7407534 -0.4139576 -0.6502854 0.14376584
0003d0 bd c9 84 3c bf ce b1 be b2 b1 46 3b e0 8b 95 bd
       0.016209478 -0.34728047 0.0030318317 -0.0730207
0003e0 36 fd 4f 3f 25 86 3f 3f 83 1e 0c 3e 20 f3 66 3f
       0.81245744 0.74814063 0.13683514 0.9021473
0003f0 39 0c 4c 3f f5 14 30 3e bf b5 83 be da 36 d3 39
       0.7970615 0.17195494 -0.257246 0.00040285924

fc1.bias f4 [576]
000000 96 a5 d8 3d 29 a0 f0 3e 0b 85 b8 bd 3a 39 27 3f
       0.10578458 0.46997193 -0.09009751 0.65321696
000010 7a 2b 5b bd 59 f5 cd be ec 14 a6 3e 71 c6 94 3e
       -0.05350826 -0.40226248 0.32437837 0.2905765
000020 c4 3f 72 3e 88 0f 6b 3e 2a 4c ed 3e 49 d5 05 3d
       0.23657137 0.22955143 0.4634717 0.032674108
000030 8b 02 2d bd 87 43 0d 3f b6 2a 05 3f 1b fe aa bd
       -0.042238753 0.55181164 0.52018297 -0.08349248
000040 8b d1 c0 3e 21 bc 81 3c 94 e7 31 be 2c f4 07 be
       0.3765987 0.015836777 -0.17373496 -0.13276738
000050 48 32 9c 3e 84 c4 0e 3f 7c 15 60 3c e3 3c bc 3d
       0.30507112 0.5576861 0.013676997 0.09191301
000060 48 94 8c 3e 82 fb 09 3e f2 75 f0 bc 1d db f0 3e
       0.2745688 0.13474849 -0.029353116 0.4704217
000070 6d dd 03 bd ea e2 a2 bb c9 66 a6 be 81 e9 c3 3e
       -0.03219359 -0.004970898 -0.32500294 0.38264087
000080 37 f1 7d 3e a2 70 eb 3e 2c ef 80 bd f2 1f be 3e
       0.24799047 0.4598437 -0.062956184 0.37133747
000090 06 75 91 3e e3 5f b9 3e 95 a3 42 3f dc fd ba be
       0.28409594 0.36205968 0.76030856 -0.36521804
0000a0 46 20 03 3e 81 9c 88 be 2c 92 93 bc da ee ce 3e
       0.1280528 -0.26681903 -0.018014036 0.40416604
0000b0 2d 71 0e be e5 a3 dc 3e 85 da c8 be e3 e7 e1 3d
       -0.1391036 0.43093792 -0.39229217 0.11030557
0000c0 e4 8b 81 3e f0 73 b8 3e 8a 97 17 3f b6 16 74 3e
       0.2530204 0.36025953 0.59215605 0.23836789
0000d0 e8 37 df 3e 47 a2 0d be e6 9e 20 bf 44 ae 05 3f
       0.4359734 -0.13831435 -0.6274246 0.52219033
0000e0 4b 9c a7 be f9 87 08 3e 53 46 b8 bc 4f e9 84 bd
       -0.3273643 0.1333312 -0.02249447 -0.064898126
0000f0 7f 22 a0 3e 0f ed 33 3e 57 47 29 3f c1 54 4d be
       0.31276318 0.175709 0.6612448 -0.20051862
000100 5f 24 93 3d f2 6c dc bd 5b 55 7f 3d d9 9f a8 3e
       0.071846716 -0.10762967 0.06233726 0.32934454
000110 a0 dd bc 3e f8 73 02 3f 66 b8 16 bd a5 eb 75 3d
       0.36887836 0.50958204 -0.03679695 0.06003918
000120 39 0a ff 3e d7 6f a7 bc 9e 15 94 bd a8 be 5b 3e
       0.49812487 -0.020439072 -0.07230686 0.21459448
000130 71 cd c4 be d6 1c b0 3c 97 4a f9 3c bc 20 65 3e
       -0.3843799 0.021498125 0.030431075 0.22375768
000140 53 12 03 3f 18 1d e4 3d 81 74 d6 bc d6 2d 0c be
       0.51199836 0.11138362 -0.0261786 -0.1368936
000150 3d 7f d8 3d 59 5c 38 3e 1d 54 14 be b7 38 2c 3e
       0.10571144 0.18003978 -0.14485212 0.1681851
000160 18 e9 29 3e 52 89 7b 3e 4b 15 03 3f a9 16 d8 bd
       0.16592824 0.24564102 0.51204365 -0.10551197
000170 c3 a0 00 3f 19 6f 34 3f 62 ab 68 3d fb 81 83 3e
       0.502453 0.7048202 0.05680407 0.25685105
000180 bc 21 18 3f b5 d9 0b bf c6 11 b0 bd c5 99 d9 bd
       0.59426475 -0.5462907 -0.0859714 -0.10625032
000190 5e 61 59 3e 60 da 85 3e 40 27 cc 3e 0e 33 8c bd
       0.21228549 0.2614317 0.39873695 -0.068456754
0001a0 20 f4 26 3d 85 44 59 be ca 89 92 3e 8a b9 3b be
       0.04076016 -0.21217544 0.2862075 -0.18332496
0001b0 c9 64 5c be 7c 03 c8 3e 7e 7b 9f bd de 53 bf be
       -0.21522821 0.39065158 -0.07787226 -0.37368673
0001c0 d0 31 53 3e fd c6 07 be a4 6d 8c 3e 93 27 04 3f
       0.2062447 -0.13259502 0.274274 0.51622885
0001d0 a8 95 de 3e 63 84 96 3e 7c 8c 29 bc 47 2f 0b 3f
       0.43473554 0.29397878 -0.0103484355 0.54369015
0001e0 59 f2 0a 3f 0d bb bc bc f4 14 b3 3e 74 2b ce 3e
       0.54276043 -0.023038412 0.34976923 0.40267527
0001f0 54 5b ea 3e c7 97 54 be f5 c3 73 3d 7d 8a 31 be
       0.45772803 -0.20761023 0.05951305 -0.17337985
000200 ec 5e 07 3f b4 3d 79 3e 1d d3 10 3f 07 a6 c5 bc
       0.52879214 0.24339944 0.56572133 -0.02412702
000210 85 85 79 be 2c d3 0b 3f 9b 82 0b 3d 78 8a 8b be
       -0.2436734 0.546191 0.034060102 -0.2725408
000220 82 76 88 be 3d 6e 01 bf ea 26 b4 3e a3 97 bd bd
       -0.26652914 -0.50558835 0.3518594 -0.09257438
000230 01 b0 ba be b2 e5 c7 be f8 29 65 bb 54 68 06 bf
       -0.36462405 -0.3904243 -0.0034967642 -0.5250294
000240 b2 39 08 bf 22 21 14 3f dc 61 6f 3c 64 10 a7 3e
       -0.53213036 0.57863057 0.014610734 0.32629693
000250 5b c7 3b 3e 19 54 ff 3e 06 7f d2 3e 3e 77 ec bd
       0.18337767 0.4986885 0.41112536 -0.11546181
000260 f0 db a0 be 06 fa f4 3e 10 a1 e1 3e e5 9b 74 bd
       -0.314178 0.47847003 0.44068193 -0.059718985
000270 6c 1d d7 3d 6f 29 a2 3d 6b 4d 8b 3e d9 90 8a bd
       0.10503659 0.07918059 0.27207503 -0.06765909
000280 f1 5a 89 bc 9a 1d 8b 3e a2 84 d3 3c 75 57 70 bd
       -0.016766997 0.27171022 0.02582008 -0.058677156
000290 54 9e 83 bd 85 a4 e4 be 59 39 4d 3e 18 01 47 be
       -0.06426683 -0.44656768 0.20041408 -0.19434011
0002a0 93 60 2b be fd 99 d0 bd c9 90 07 3e 16 2b 55 3e
       -0.16736059 -0.10185621 0.13238825 0.20817217
0002b0 44 cd f1 bb 8f 84 1b 3f 1d 75 66 3e ea 1d f2 3c
       -0.007379206 0.60749143 0.22505613 0.02955528
0002c0 b8 3a ac be 1e c0 bd 3e 69 d0 95 3d 7b 74 f0 bd
       -0.3363855 0.37060636 0.07315142 -0.11740967
0002d0 95 38 13 3f 8d e3 8c 3e ea 8b 46 be 3d bc da 3d
       0.5750821 0.27517357 -0.1938931 0.10680435
0002e0 cb 3a 03 3f 3c ec 35 bd 6a 7c 19 3f 56 ae fa 3e
       0.51261586 -0.044414744 0.59955466 0.48961133
0002f0 52 ba c5 bd dd f3 69 3e 71 27 42 be 6d ed a0 3d
       -0.096546784 0.22846933 -0.18960358 0.078577854
000300 30 80 51 be e5 c9 6f be 68 cf 3b 3e 6f 89 33 be
       -0.20459056 -0.2341686 0.18340838 -0.17532896
000310 f7 06 7a be 3e f4 9f 3e 6c 66 09 3f a6 fa 95 bd
       -0.2441672 0.3124103 0.5367191 -0.07323198
000320 c3 b4 fb bd fb 2f dd 3e a4 fc c4 3d 27 11 a7 be
       -0.12290337 0.4320067 0.096185 -0.32630274
000330 ac da c6 be 54 66 d7 3e 17 c6 1a 3e 2b 68 4b 3e
       -0.38838708 0.42070258 0.15114628 0.19863956
000340 32 cc de bd 21 bc dd bd 67 c8 c9 be cd 3f 5d 3e
       -0.10878791 -0.10826898 -0.39410707 0.2160637
000350 86 19 c4 bd 0b 3b 35 be fa 5d 4d 3d b3 65 b9 3e
       -0.09575181 -0.17698304 0.05013845 0.36210403
000360 49 df 49 3e 97 f9 df 3c 2a 30 eb bd 29 22 89 be
       0.19714083 0.027340693 -0.11483796 -0.26783875
000370 d8 9e 28 3d 87 31 f3 3c 61 5d 04 3f 3f ce b5 bd
       0.04116711 0.029686702 0.51704985 -0.08877229
000380 aa b5 08 3e b6 3a 6b be 57 99 7b 3d de 35 83 bd
       0.1335055 -0.22971615 0.061425533 -0.06406759
000390 b3 94 03 bf 2d 7d 15 3f c4 6f 93 3e e7 e3 a5 3e
       -0.5139877 0.5839413 0.28796208 0.32400438
0003a0 0c 73 09 3e 15 43 32 3e 6a 0c c9 bd 1e 96 1b 3c
       0.13422793 0.17408402 -0.09816821 0.00949624
0003b0 d2 f7 3c 3e b0 0c a9 3e ac 78 df 3e d0 12 a6 3e
       0.18453911 0.33017492 0.43646753 0.32436228
0003c0 45 e2 a3 bd f0 f3 c1 3e c2 56 a9 3e 5f 50 e2 3e
       -0.08002142 0.37881422 0.33074003 0.44201943
0003d0 a8 ac 2e 3d 6b ca 47 3d f5 53 04 bd 63 72 2e 3e
       0.042645127 0.048777025 -0.03230663 0.17035823
0003e0 38 f7 07 3f a6 8e b8 3e 77 68 ec 3e 31 40 7e 3e
       0.531116 0.36046332 0.4617345 0.24829175
0003f0 c5 a5 15 3f ef bf 4c be ba ca a9 3d eb ed 20 be
       0.5845607 -0.19995092 0.0829062 -0.15715759

fc2.weight f4 [288, 576]
000000 45 78 33 bf 07 c3 6c bd 43 dc d5 3d 20 b8 5d 3d
       -0.7010539 -0.05780318 0.10442402 0.054130673
000010 e5 71 ca be c0 0d 3d 3d f2 e2 a1 3d e1 34 ec 3d
       -0.3954002 0.04615569 0.079046145 0.11533523
000020 77 15 97 be 79 f9 86 be 58 2e 4e be 7a f3 b3 be
       -0.29508564 -0.26362208 -0.20134866 -0.35146695
000030 fe 34 ba bc 91 98 e0 3d 5f 6e 7d bc f8 c2 8f be
       -0.022730347 0.109666 -0.015468209 -0.28078437
000040 a2 c4 c6 3d 09 79 9f be 4c 15 01 bc 2f 30 1e be
       0.097054735 -0.3114703 -0.007878613 -0.15448068
000050 c8 78 8f 3d a1 88 50 3e ee 21 7f bd 29 99 8c 3c
       0.07005459 0.2036462 -0.062288217 0.017162876
000060 d5 a4 a3 3d 29 6c 80 bd b1 29 1e bf df ac ee 3d
       0.079904236 -0.0627063 -0.61782366 0.11654066
000070 6a 57 1a bf 78 a9 40 be 9a df 39 bf c3 40 9c 3e
       -0.60289633 -0.18814647 -0.72606814 0.3051816
000080 d0 b4 fd be 35 cf 71 3d 31 ff 95 3e a3 80 4a 3e
       -0.4955201 0.0590355 0.29296258 0.19775634
000090 06 fa 25 be a0 7a 09 3e 5e d2 36 3e 00 fd 26 be
       -0.16208658 0.13425684 0.17853686 -0.1630745
0000a0 28 8f 3b be 42 a8 cd be 4e 26 d7 be 94 37 a7 3d
       -0.18316329 -0.40167433 -0.42021412 0.081648976
0000b0 ef 20 1c bf 91 5a 8e 3e 1b 52 f0 be 9c 97 b4 be
       -0.6098775 0.27803472 -0.46937642 -0.3527192
0000c0 2f 20 3f be 2b 72 50 3d e1 ea 33 3d c0 70 06 3e
       -0.18664621 0.05089013 0.04392517 0.13128948
0000d0 0c 50 c6 bd df e3 62 bd 04 ec f9 be 02 d4 02 3d
       -0.096832365 -0.055393096 -0.48812878 0.031940468
0000e0 f0 53 10 bf 53 ba bd be ca 6e 29 3f ed b7 8a 3e
       -0.5637808 -0.37056217 0.66184676 0.2709345
0000f0 5a f0 ce 3a b5 10 2b be b6 df 60 3e 23 84 bf 3e
       0.0015788183 -0.16705592 0.21960339 0.374055
000100 8e 56 9b 3d ad 7c 49 be a6 f0 73 3e c0 72 d2 be
       0.07584868 -0.19676466 0.23822269 -0.41103172
000110 8f 9f 73 be 18 fc b0 3d 04 72 c6 be 9d 48 52 be
       -0.23791336 0.08641833 -0.38758862 -0.20535512
000120 66 49 0f 3e cc 5b 2a be 71 8b b8 bd 3a 48 56 3e
       0.13992843 -0.1663658 -0.09010971 0.2092599
000130 7f 1c 8b be 27 cf 55 bc 22 39 ad 3e 1a 82 c8 be
       -0.27170178 -0.013049877 0.3383265 -0.3916176
000140 d2 a5 1a 3e 5d 2f d6 be 52 74 35 be 78 1a 67 3d
       0.15102318 -0.4183301 -0.17720154 0.056421727
000150 07 4d 84 be 50 b3 7b be 2c 4e 42 3e cd 55 04 be
       -0.25840017 -0.24580121 0.18975133 -0.12923355
000160 6a 1b 6a 3e 27 9c 23 be f4 c7 8f 3e 1b 76 c2 be
       0.2286202 -0.15977536 0.2808224 -0.37980732
000170 c3 bf 0d 3e 38 63 04 3e 60 ab 8d be 07 86 20 3e
       0.13842683 0.12928474 -0.2766981 0.15676127
000180 06 37 ed 3d af 98 8e bd 14 0f dc be 05 bd d4 be
       0.115827605 -0.06962716 -0.42980254 -0.4155046
000190 ec 0c 3b 3e 8e 65 13 3e 25 7e 97 bd f4 9d ae be
       0.18266648 0.14394209 -0.07397107 -0.34104884
0001a0 57 f6 97 be f7 7d 25 bf d5 8e 0d bf d4 ba bb be
       -0.2968013 -0.6464533 -0.5529607 -0.36665976
0001b0 6f ad 87 be 9d a1 9c 3e d8 95 a7 be 03 b3 29 bd
       -0.26499507 0.3059205 -0.3273151 -0.041430485
0001c0 02 57 26 be c2 ec 87 bf 51 ee b1 bd b2 75 0d 3e
       -0.16244128 -1.0619128 -0.08688033 0.13814428
0001d0 8c 44 2f bd 4e 5d 29 bd 38 06 c0 bc fe d4 9a 3d
       -0.04278998 -0.041348748 -0.023440465 0.07560156
0001e0 dd aa 2d 3e 0e 31 99 be cc b9 0d be f9 3d a8 bd
       0.1695971 -0.29920238 -0.13840407 -0.08214945
0001f0 28 7f 5f 3b 66 ac cf be d3 76 df be 27 c0 fa be
       0.003410289 -0.40561217 -0.43645343 -0.48974726
000200 fc 11 4c bd e2 a0 ff bd 78 88 5c be 05 8c 3a bf
       -0.04982184 -0.12481858 -0.21536434 -0.728699
000210 b6 5d dd bd 49 f0 25 3e c6 58 ff be 46 aa a2 3e
       -0.108088896 0.16204943 -0.49872416 0.31770533
000220 d0 a6 3d bf 71 33 41 bf 5c a2 52 be 04 08 fc be
       -0.7408266 -0.7546912 -0.20569748 -0.49224865
000230 64 78 83 bd ce 0a 55 bf 0a 8c 8b bf 35 f8 20 3f
       -0.06419447 -0.8321961 -1.0902112 0.62878734
000240 89 3e 2f bf 6e 1b ed bd b7 e1 2b c0 1b ea 18 3e
       -0.68454796 -0.115774974 -2.6856515 0.14933054
000250 42 c0 20 bf c3 bf 4e 3e a2 9d 10 3e a2 a7 0e bf
       -0.6279336 0.20190339 0.14122632 -0.5572454
000260 77 eb 6f be f8 a8 a5 3d 30 b0 b8 bd 1f 7e d3 be
       -0.23429666 0.08088869 -0.0901798 -0.4130716
000270 ce 20 50 3d 6d 6e 72 bf 9b a5 48 bf c4 2a 10 bf
       0.050812535 -0.94699746 -0.78377694 -0.56315255
000280 b6 b3 eb 3e f9 65 de 3d 75 a2 22 3e 39 8c 90 3d
       0.46035546 0.108592935 0.15882285 0.07057995
000290 61 18 d4 be cd f9 ab be 9d 58 59 bb 14 a8 37 be
       -0.4142485 -0.3358902 -0.003316439 -0.1793521
0002a0 b6 c2 61 be 7d 17 4a bc 05 65 3b 3e 54 82 a2 be
       -0.22046933 -0.012334702 0.18300255 -0.31740057
0002b0 d1 ba 81 be 3e 49 c3 3d d0 25 fa 3d bc 4d 45 be
       -0.25337842 0.09535454 0.122142434 -0.19267935
0002c0 92 3a 1b bf 54 e5 92 3d ee c1 0e bf ad 85 a6 be
       -0.60636246 0.07172647 -0.55764663 -0.32523862
0002d0 5f a3 be 3d 5a 9d 74 3e 8f 7a 2a 3e 87 c7 93 3c
       0.09308504 0.2388815 0.16648315 0.018039478
0002e0 d9 b9 40 3d f9 85 10 be 58 50 84 3c 3b 73 96 3e
       0.047052238 -0.14113607 0.016151592 0.2938479
0002f0 db 7f 39 bf ac 6e da 3c 5b 9e 14 bf 50 ad 62 bf
       -0.72460717 0.0266641 -0.5805413 -0.88545704
000300 ba 3b 2e bf 5f ef 11 be 0d a9 97 be 8a a6 bc bf
       -0.68059886 -0.14251469 -0.29621163 -1.4738324
000310 3f 55 1e be 05 8a 31 3d 8d 94 6b be 85 a8 ad bc
       -0.15462206 0.043344516 -0.23005886 -0.02119852
000320 97 f9 da 3e 85 a6 69 be 24 a8 bb be 9e 84 25 bf
       0.42768547 -0.22817428 -0.3665172 -0.6465548
000330 1b 48 08 3d c4 37 9f 3e 70 e6 26 3e 9b d7 ca bd
       0.03327189 0.31097233 0.16298842 -0.09904405
000340 2b c6 11 bf f7 eb a9 3c f3 27 66 be 09 fd ff be
       -0.56943005 0.0207424 -0.22476177 -0.49997738
000350 13 1b fd be cf ac 83 be 97 57 1c bd 44 b6 3f bc
       -0.49434718 -0.2571778 -0.03816947 -0.01170117
000360 db 73 19 3e ca 10 99 bf fd 96 91 be 6a 3f b6 be
       0.14985602 -1.1958249 -0.28435507 -0.35595256
000370 23 54 19 be 5f eb 09 3f e3 71 ec 3d f4 49 2b be
       -0.14973502 0.5387477 0.1154516 -0.1672743
000380 9b 73 ff be 96 5f 0c 3e b9 dd 26 3e 5b 16 9c be
       -0.49892887 0.13708338 0.16295518 -0.30485806
000390 aa d0 de be be 92 fe 3d 4a 24 12 3d 80 01 c5 bd
       -0.43518573 0.124303326 0.03567914 -0.09619427
0003a0 a8 2d b7 be e8 bf 73 be 4a e4 98 be 9c 4d 01 bf
       -0.3577702 -0.23803675 -0.2986167 -0.5050905
0003b0 86 eb 2a 3e b5 16 dc bd 3e c5 e6 bd 98 88 90 be
       0.16691408 -0.107465185 -0.1126809 -0.28229213
0003c0 c8 fc 85 3e ed 0c 8e 3c 14 b5 d4 be ca 5d d4 be
       0.2616942 0.017340148 -0.41544402 -0.41477805
0003d0 6d 5a 32 bd 1e 4e fe 3d 8c 01 56 be f3 57 95 3e
       -0.043543268 0.124172434 -0.20899028 0.29168662
0003e0 f1 9a d6 3c b7 79 a4 3e a3 af 53 3e aa 45 3c 3e
       0.026196929 0.3212411 0.20672469 0.1838595
0003f0 14 ac c3 bd c9 a6 e0 be 51 b1 88 3d 51 d0 66 bf
       -0.09554306 -0.43877247 0.066744454 -0.90161616

fc2.bias f4 [288]
000000 7f be d4 3d 9e a3 6d bb a0 23 a9 3d 9f cb e6 bc
       0.10387897 -0.0036260854 0.08258748 -0.028173266
000010 41 60 e2 3d 99 a6 f9 3d 3a 61 fa 3d ac 40 b2 3d
       0.11053515 0.12189979 0.12225576 0.087037414
000020 31 fe 1b 3e 85 25 8c 3d 8d 81 05 3e 52 4e 4c 3b
       0.15233685 0.06843094 0.13037701 0.0031174612
000030 f7 3e 32 bd 64 bd 0c 3e 53 3d ce 3b fc 13 c8 3d
       -0.04351708 0.13744122 0.0062939315 0.09769437
000040 31 95 cb 3c ad 09 33 bb c7 25 ac 3d b1 52 57 3d
       0.024851413 -0.0027319 0.08405643 0.052569095
000050 18 a6 16 3d b9 d2 2a 3e bd bb 82 3d 79 29 fb 3d
       0.036779493 0.16681947 0.063834645 0.1226377
000060 bf 01 01 3e 63 24 ca 3d ea 72 15 bd 76 f3 5e 3d
       0.12598322 0.098702215 -0.036486544 0.0544314
000070 0b 1e b7 3d 5b c7 88 3c f8 73 7f 3d 02 ba 55 3e
       0.08941277 0.016696623 0.062366456 0.20871738
000080 e5 2b 2d 3d fa c8 04 3e 3c b4 01 3e 2e a0 9b ba
       0.04227819 0.12967291 0.1266641 -0.0011873299
000090 af 17 97 3d 44 d9 7f 3d 15 2c 28 bd fd 66 81 3d
       0.07377564 0.06246306 -0.041057665 0.063184716
0000a0 46 e9 11 bc d4 b6 f3 3c 85 b5 0a 3e 95 f2 8f 3d
       -0.008905714 0.029750265 0.13545807 0.07028691
0000b0 03 88 05 3d 54 87 ab 3c c6 c8 f3 bb 43 ee ca 3d
       0.032600414 0.020938553 -0.0074397055 0.09908726
0000c0 91 76 0d 3b 66 b1 ef bd 22 70 cb 3d 3b 10 32 bd
       0.0021585564 -0.11703758 0.09933497 -0.04347251
0000d0 a8 46 75 3d ef 8f 89 3c 7f c5 d4 bc 3c c4 13 3e
       0.059881836 0.016792266 -0.02597308 0.14430326
0000e0 06 08 8a 3d a5 9e 81 3c cf 4a 17 be 69 99 a7 3d
       0.067398116 0.015822718 -0.14774631 0.081835575
0000f0 08 48 2d 3b 09 e4 bb 3c 0f 14 03 be 59 ce f1 bc
       0.002644064 0.022935884 -0.1280062 -0.02951734
000100 3d fc b2 3b 88 68 45 3e bb 88 40 3d 5e e9 77 3c
       0.005462198 0.19278157 0.047005396 0.015131323
000110 1f 63 7d bd a2 d6 99 3d ae 01 22 be 24 13 f5 3c
       -0.061862107 0.07511641 -0.15820953 0.029916354
000120 b8 12 53 bc 32 2e 26 3d 3e b9 d6 3d d3 fc d0 3d
       -0.012882881 0.0405714 0.10484551 0.102044724
000130 a3 e8 29 3c 43 ae 20 3e e9 c3 26 bd dd e9 66 bd
       0.010370406 0.15691476 -0.04071418 -0.056375373
000140 0a b9 24 bd e7 2e 91 be b3 87 e4 3c 57 82 3c bd
       -0.04021553 -0.28356096 0.027896738 -0.04602274
000150 83 f4 bc 3d 9d 9a 38 3e e0 37 13 3e 9b cb 5b 3a
       0.092263244 0.1802773 0.14376783 0.00083845266
000160 68 82 ba 3d 88 d4 ba 3d 8b fa 04 3e 68 47 d2 3d
       0.09106904 0.09122568 0.129862 0.10267526
000170 a6 b4 aa bc 1f 43 0b 3e c5 d9 8d be 8f 04 20 3e
       -0.020838093 0.13599823 -0.27705207 0.15626739
000180 14 58 a1 3c 94 de ca 3d aa c5 f7 3b 63 f2 38 bd
       0.01969532 0.09905735 0.007561405 -0.045153033
000190 c8 61 88 3d c2 ac f6 3e c8 dc c9 3d 21 3e e0 3c
       0.06659275 0.4817868 0.09856564 0.027373375
0001a0 31 1c 57 3e fd 07 80 be 3f 6e 3f 3c 08 b7 23 3e
       0.21006848 -0.25006095 0.011684 0.1598779
0001b0 23 c2 89 3d 45 2a 93 bd b4 7c f0 3d 88 9b 39 be
       0.06726482 -0.07185797 0.11742535 -0.18125737
0001c0 b4 c1 bc ba 18 70 22 bd 7b e5 56 3c 0c 9d ba bd
       -0.001440099 -0.039657682 0.013116236 -0.091119856
0001d0 e0 ce e1 3d 23 33 b7 bc 0f 3d 98 3e 08 4e e1 bc
       0.110257864 -0.022363251 0.29734084 -0.027503029
0001e0 89 07 d7 3d 86 80 8a bc c9 4c b3 3e 63 d0 be 3c
       0.10499484 -0.016906988 0.3501952 0.023292726
0001f0 29 2e 2a 3c b9 b2 f3 3d ec c6 89 bc 00 22 d8 3d
       0.010386982 0.11899323 -0.016818486 0.1055336
000200 bf ca 42 3d 7f 27 b4 bc fc 55 35 3c 11 93 45 bb
       0.047556635 -0.02199149 0.011067864 -0.0030147473
000210 d0 53 eb 3c 71 7b 07 3e 01 d5 9c 3d a5 d6 fe 3d
       0.028726488 0.13230683 0.07657815 0.12443284
000220 79 df f8 bd 74 80 e1 3c 4f 69 0e 3e 3a 5d b8 3d
       -0.12151999 0.027527072 0.1390736 0.090021566
000230 eb bb 18 bd dd 5b a1 bc 5e 59 ee 3d 16 dd 7e 3d
       -0.037288588 -0.019697124 0.11638139 0.062222563
000240 ca c9 9c 3d 17 ba 97 3d ef 2d 98 bd 75 fd a0 3e
       0.07655676 0.07408541 -0.07430636 0.31443372
000250 8f c4 c6 bc 66 46 04 3d 93 ca 6d bd 77 ec de 3c
       -0.024263648 0.0322937 -0.058054518 0.027212365
000260 13 2a 5c be a6 17 00 3c 21 f2 75 bc c8 ef e3 3d
       -0.21500425 0.007818138 -0.015011341 0.11129719
000270 b5 02 2b 3e 27 e7 56 bc 8b 2a ff bc f6 eb b6 3d
       0.16700251 -0.013116634 -0.031148216 0.08931725
000280 41 77 e7 3c eb 93 e3 3c 42 17 82 3d ed 1e 57 3d
       0.028255107 0.027780494 0.06352092 0.052519727
000290 4f c4 eb 3d 33 fb 63 3d 9a 2a bd 3d 69 f0 e7 3d
       0.11512052 0.055659484 0.09236641 0.113251515
0002a0 af 84 ab bd ef 57 fb 39 c4 64 4d be 74 07 96 3d
       -0.08374917 0.00047939966 -0.2005797 0.0732564
0002b0 90 26 ca 3c a5 e2 82 3c bd 07 a6 3d bb c1 30 bd
       0.024676591 0.015977213 0.08106945 -0.043153506
0002c0 14 3b 1c bd e6 27 d2 3d 17 77 a6 3d c7 c2 47 3c
       -0.03814228 0.10261516 0.08128183 0.012192435
0002d0 11 6b bc 3b cc 9e 0f bc fc ad f8 3d 24 aa 61 bd
       0.005750068 -0.0087658875 0.1214256 -0.0550939
0002e0 7a c8 97 3d b3 89 c1 3c ac ca db 3d 6c 7e 8f 3d
       0.07411285 0.02362523 0.10732016 0.07006535
0002f0 63 d7 fd 3c 82 a1 b1 3e 4d e5 7d be 23 49 68 bb
       0.030986493 0.34693533 -0.24794503 -0.0035443984
000300 ad 08 52 bd 83 ee a0 3d b6 95 82 3d 64 0a 41 3d
       -0.051277805 0.078579925 0.06376211 0.04712905
000310 f5 db ef bc 0e c2 8c 3c 1a 78 b1 3c ad 6d b0 3d
       -0.029279688 0.017182376 0.021663714 0.08614669
000320 87 c6 0a 3d fa 61 04 3d a0 04 95 3e c0 a9 1c be
       0.033880737 0.03232 0.2910509 -0.1529913
000330 94 fc 7b 3e 9f 9f 59 3a 7a ec 57 bc 9c 8a 64 3d
       0.2460807 0.00083016785 -0.013178939 0.05579625
000340 70 6a 5b bc d5 5c a5 bd 9b f1 2f 3d d5 b2 d4 bc
       -0.013392076 -0.08074347 0.042955022 -0.02596418
000350 56 42 cb 3d 96 e2 10 bd 49 ac f9 3b 91 0c df 3d
       0.09924762 -0.03537234 0.007619415 0.10891069
000360 a1 05 75 3d 6e b5 99 3d 7a 58 9e bd d7 68 0e bd
       0.05981982 0.07505308 -0.07731719 -0.03476795
000370 e7 f8 ed 3c 0c 19 eb 3d c7 bb 87 be 22 d9 eb 3d
       0.02904935 0.11479387 -0.2651045 0.11516024
000380 8e 66 e5 3d 34 15 35 3e c8 a1 94 3d 07 6a 34 3e
       0.112012014 0.1768387 0.0725742 0.17618571
000390 bf 8a 36 bb 49 da 23 3e 57 85 9f 3d 96 c4 0b 3c
       -0.0027853695 0.16001238 0.077891044 0.008530756
0003a0 76 74 99 3b e9 bc a4 bc e4 90 b3 3e 57 e0 3a 3e
       0.0046830727 -0.02010961 0.3507148 0.18249641
0003b0 1d 57 5b 3c 78 c8 8c 3d e6 b4 9f 3d 7e 53 83 bd
       0.013387469 0.06874174 0.077981755 -0.06412409
0003c0 cb a1 10 3e 71 9c 7d bd 70 95 fb 3d a9 9a 90 bc
       0.14124219 -0.061916772 0.12284362 -0.017651873
0003d0 8e 8f ac 3d a8 36 1e 3e cd 79 21 3e d1 53 c0 bb
       0.084258184 0.15450537 0.1576912 -0.0058693667
0003e0 e1 26 16 bd d0 83 c2 3d 90 22 be bb e1 12 81 3d
       -0.03665817 0.094977975 -0.00580246 0.06302429
0003f0 79 be 92 bc e6 27 ee bb b8 cb 52 bc ff 29 df 3d
       -0.01791309 -0.00726794 -0.012865953 0.10896682

fc3.weight f4 [144, 288]
000000 d7 d1 43 3d c8 48 fe 3b 8b f8 6d 3d e2 c6 c7 3c
       0.04780754 0.007760141 0.058098357 0.024386827
000010 e4 eb c8 bc 38 4a 04 bd 7d 97 41 3d 16 1c c1 bc
       -0.024526544 -0.032297343 0.04726361 -0.023572963
000020 da b5 ca 3c 7c 4f 2b bd 30 78 1e bc da 16 b4 3c
       0.024744917 -0.04182385 -0.00967221 0.021983553
000030 56 57 96 3c 03 ee 18 3d 24 b1 4e bd 9f 8c 36 3d
       0.018352192 0.03733636 -0.050461903 0.0445677
000040 b8 cd f6 3b 7f c4 52 3d f9 18 55 3d 08 30 6f bc
       0.007531848 0.051456925 0.05202577 -0.014598854
000050 bf 5f ef bc 00 c5 11 bb 73 42 38 3d ca d9 8b 3c
       -0.02922046 -0.0022242665 0.044985246 0.017071623
000060 bc de 2c 3c 3b 07 6a 3d 54 87 27 3c 38 bb ce bb
       0.010551151 0.0571358 0.010225136 -0.0063089393
000070 f8 72 f6 3b 7d 7c 3c 3d 5b a9 07 3d dc e2 39 3c
       0.0075210296 0.04601716 0.033120494 0.011345591
000080 51 be 4b bd 73 81 27 3d 20 7b a2 ba b6 78 d0 bc
       -0.049742047 0.040894937 -0.0012396313 -0.025448184
000090 2b 7b 57 bd a0 10 8c ba f5 1f 30 3d 3c 9a a6 bc
       -0.052607697 -0.0010686107 0.042999227 -0.020337217
0000a0 38 7d ac bb f7 c3 27 bd e0 ec 1f bb 68 e6 00 bd
       -0.0052639507 -0.04095837 -0.0024402663 -0.031469733
0000b0 82 85 81 3c 89 ac 51 bd 9c 14 c4 bc f0 b6 93 bb
       0.015810732 -0.051189933 -0.023935609 -0.004507892
0000c0 14 1f 1f 3c d2 29 c9 3c 00 8a ad bc 98 2f 8b bb
       0.009711999 0.024556074 -0.021183968 -0.004247617
0000d0 9e 31 5b bd 90 a4 2b 3b 24 5a 34 3c a2 60 e2 3c
       -0.053514116 0.0026190616 0.011007819 0.027633969
0000e0 ad 42 0e 3d 80 17 31 bc 95 59 07 3d f3 2a 58 bd
       0.034731556 -0.0108088255 0.033044416 -0.052775335
0000f0 10 55 06 bb 31 8e 17 3d b8 72 2c bd dc f5 77 bc
       -0.0020497479 0.03700084 -0.04210159 -0.015134301
000100 be 4a 3e bd b9 05 0f 3d b2 89 4d bd e0 ac 2e bd
       -0.046458 0.034917567 -0.050180145 -0.042645335
000110 78 69 e9 bc e7 7e 38 3d 1a 1d 8b 3c ac 23 68 3c
       -0.028492674 0.0450429 0.01698165 0.014168661
000120 96 cc 89 bc fc 68 07 bd c0 80 04 ba 66 bc af bc
       -0.016821187 -0.033059105 -0.00050545856 -0.02145214
000130 31 b7 60 3d 36 11 b7 bc a8 67 c8 3b b9 e4 52 bd
       0.054862205 -0.022347074 0.0061158724 -0.05148766
000140 72 62 8e 3c 38 88 0e bd 37 02 f5 bc 08 0b da 3b
       0.017380927 -0.034797877 -0.029908283 0.006654147
000150 95 b1 33 bd 0c 73 10 3c fc b9 2f 3c 80 95 19 3b
       -0.043870527 0.008816492 0.0107254945 0.0023435056
000160 fd 5c 47 3d 52 ff cf 3c b4 08 dd bc c8 d4 98 3b
       0.048672665 0.0253903 -0.026981689 0.0046640374
000170 9c 37 3b bc 00 b6 88 bb c0 dd 01 bc cd 08 28 3d
       -0.0114268325 -0.0041720867 -0.0079264045 0.041024018
000180 ac 05 31 bd 32 6c 0c bd 24 6d 2a 3c 9c 21 26 bc
       -0.0432183 -0.03428287 0.010401998 -0.010139849
000190 bf a6 11 3d 5d 84 1b 3d 50 64 04 bb 1b e6 3f 3d
       0.035559412 0.03796803 -0.0020201392 0.046850305
0001a0 7a 3a 93 3c 8a bb 96 3c 44 86 61 3c ef 53 55 3d
       0.01797222 0.018399972 0.013764922 0.052082
0001b0 86 e3 90 3c a8 b0 f4 3b a6 cc b5 3c 1c e0 0e 3c
       0.017686617 0.007467348 0.02219231 0.008720424
0001c0 e4 4d 08 bc 88 3c c1 3b aa f4 ab bc e1 4e 0f 3d
       -0.008319352 0.0058971085 -0.020990688 0.034987334
0001d0 24 79 50 bd 2c 26 63 3c b5 d0 4f 3d a0 6b 38 3b
       -0.05089678 0.013864081 0.050736148 0.0028140321
0001e0 0c a2 6d bc a0 c8 d5 ba a8 64 a8 bb 72 16 ee 3c
       -0.014503967 -0.0016310401 -0.0051389523 0.029063437
0001f0 f6 cf bc bc 16 bf b3 3c f8 5e eb 3b 43 ba 6b 3d
       -0.023048382 0.021941703 0.007182952 0.05755068
000200 3c ec 79 3c 5c cb 52 bc 48 9c 89 3b 28 59 ca 3b
       0.015254077 -0.0128658675 0.0041995384 0.006175179
000210 22 b9 30 bd f7 10 48 3d de 96 9c 3c 0c 2d 26 bc
       -0.043145306 0.048844304 0.019114908 -0.010142576
000220 40 c8 2c ba 50 b6 ac bc dc 83 6d 3c a9 85 1a bd
       -0.0006591119 -0.021083027 0.01449677 -0.037725125
000230 8b 59 4f 3d 72 f4 9d bc 24 df f5 bc 23 0f 39 3d
       0.050622504 -0.0192816 -0.030013628 0.04518045
000240 15 4f 13 3d 45 34 6a 3d ac 44 13 bd e2 da 47 bd
       0.03596409 0.057178754 -0.035954162 -0.048792727
000250 26 90 8e 3c 06 96 2a bd a9 2c 62 3d 02 0c 55 bd
       0.01740272 -0.04164698 0.055218372 -0.052013405
000260 00 96 46 39 28 53 e4 bb 58 d4 e8 3b 3c 72 4d bd
       0.00018938631 -0.006967921 0.0071053915 -0.05015777
000270 aa ff 8f 3c 18 c7 0b bd e5 67 45 3d 9e a4 ca 3c
       0.017577965 -0.034125417 0.048194785 0.024736699
000280 1c 05 23 3c 60 4a bf bb d0 7a 0d bc 66 b8 cd bc
       0.009949949 -0.0058377236 -0.008635238 -0.025112342
000290 d6 e0 f2 3c c6 6f 27 bd 85 fd 63 3d 00 3c 9f bc
       0.029648226 -0.04087808 0.055661697 -0.01943779
0002a0 08 9d e3 bc c4 fb 46 bc 40 2b 4f 3a 92 81 2d bd
       -0.02778484 -0.012144987 0.0007902868 -0.042359896
0002b0 3e ef c2 3c 10 3e 9a bc ed 56 5c bd 67 b4 40 3d
       0.02379572 -0.018828422 -0.053793836 0.047047045
0002c0 3a 82 af bc b4 77 35 bc 6e 80 cb 3c 07 59 1e 3d
       -0.021424402 -0.011075903 0.024841513 0.03865912
0002d0 b4 02 3f bc 6a fa e9 3c ca b3 8a 3c bb e0 58 3d
       -0.011658359 0.02856179 0.016931433 0.052948695
0002e0 38 1e 08 bc a2 c3 95 3c f0 be df bb 84 84 88 bc
       -0.008307986 0.018281762 -0.0068281814 -0.01666475
0002f0 c8 8a 73 bc 9b 28 5f 3d 91 f8 54 3d 5e c5 c3 3c
       -0.014864631 0.054482084 0.051994864 0.023897823
000300 3a b5 d7 bc 4c 07 10 bd 33 7a fb bc 57 51 54 bd
       -0.026331533 -0.03516321 -0.030697918 -0.051835384
000310 7d 69 21 3d e6 58 15 bd bc 5f 89 bc 0d af 25 3d
       0.039407242 -0.036461733 -0.016769283 0.040450145
000320 a6 db 86 3c b2 a7 ea 3c d6 51 f1 3c 30 f3 c5 bc
       0.016462158 0.028644416 0.029457968 -0.024163812
000330 e8 c6 f9 bb 66 1c e3 3c a9 bf 48 bd 0c 81 4f bc
       -0.0076225884 0.027723502 -0.049010906 -0.0126650445
000340 8a 36 5c bd 20 2c fc bb 2e d8 f3 3c ff 68 57 bd
       -0.05376295 -0.00769569 0.029766168 -0.052590366
000350 5c 7a 1a bd e8 4b b5 bb be f6 ca 3c dc 94 7a 3c
       -0.037714347 -0.0055327304 0.024775859 0.01529428
000360 e6 f7 88 3c 3d 6b 54 3d bf 7f 2e 3d 8f 9c 4f 3d
       0.01671977 0.051860083 0.042602297 0.050686415
000370 8f 9d 56 3d 00 27 39 b9 95 e5 63 3d c2 e4 e2 3c
       0.052396353 -0.00017657503 0.05563887 0.02769697
000380 a1 6c 00 3d 06 5f d1 3c 76 4f f2 3c 6a 88 fe 3c
       0.031353597 0.025558006 0.029578906 0.031070907
000390 d2 d0 ad 3c 02 fa 8f 3c 1c f3 2a 3c a0 71 ae ba
       0.021217737 0.017575268 0.010433938 -0.0013309009
0003a0 4e ef 8d 3c fd eb 02 3d 7a 4e b4 3c 07 0a 3a bd
       0.017326023 0.031963337 0.022010077 -0.04541972
0003b0 6f 37 03 3d b5 83 61 3d cc ac 16 bc f0 53 3c 3b
       0.032035287 0.055057246 -0.009196471 0.0028736554
0003c0 e6 d2 5c bd 24 cc 87 bc 21 ce 58 3d 84 70 5e 3c
       -0.053912066 -0.016576834 0.052930955 0.0135766305
0003d0 57 2a 22 3d 3f 8d 00 3d a2 8d 9f 3c 67 22 64 3d
       0.03959116 0.031384703 0.019476715 0.05569687
0003e0 7c 21 a0 bc a1 5f 48 3d dc c9 6a 3c f8 c9 07 bd
       -0.019547217 0.048919324 0.014330354 -0.033151597
0003f0 a6 a6 dc 3c 57 6d 3e 3d 50 ce 10 3b 86 04 be 3c
       0.026934933 0.046490993 0.0022095628 0.023195516

fc3.bias f4 [144]
000000 7e f7 88 bc 77 d7 5d bd 05 c6 01 3d 1c 0c 76 3c
       -0.016719576 -0.05416056 0.031682987 0.015017536
000010 cd a1 07 3d 97 a8 46 3d 23 cc 20 3d 60 c7 44 3b
       0.03311329 0.048500624 0.03925718 0.0030026063
000020 39 be 63 bd e0 17 db bc 88 93 ec 3b 64 f4 26 bd
       -0.055601332 -0.026744783 0.0072197355 -0.040760413
000030 2a 33 e3 3c 34 55 00 bd 86 f6 f8 3c e0 d1 c9 bb
       0.027734358 -0.031331256 0.030390989 -0.0061590523
000040 00 0b 04 39 25 4a 31 3d bd 3d 41 3d fd d3 41 3d
       0.00012592599 0.0432836 0.04717802 0.04732131
000050 1e 1f 03 bd 9f 9c 2f 3d b7 47 19 3d f1 30 2c 3d
       -0.032012098 0.042873975 0.03742191 0.04203886
000060 41 a4 68 bd ca 2d 4f bd e6 ae d5 bc 41 59 6a bd
       -0.05679727 -0.050580777 -0.026084375 -0.057214025
000070 86 27 9a bc ac c5 80 bc 40 cc 68 bd 82 c6 a9 3c
       -0.018817674 -0.015719257 -0.056835413 0.020724539
000080 74 cc 40 bd 06 27 fe 3c 1a 3a a0 bc 92 b2 2f bd
       -0.04706998 0.031024467 -0.019558955 -0.042894907
000090 e5 6d 49 3d 26 fd dc 3c 38 c3 61 bd ce f4 cf bc
       0.04917707 0.02697618 -0.055117816 -0.025385287
0000a0 b3 08 56 3d a0 b5 20 bb 3d 39 6e 3d dd 64 42 bd
       0.05225439 -0.002452232 0.058160055 -0.047459472
0000b0 aa c4 de bc ae ce 0b bd 77 ec 67 3d 8e bd 89 3c
       -0.027193386 -0.034132652 0.056621995 0.01681402
0000c0 7a 24 52 bd dd 0b 4b 3d da 4d 4c bd 41 85 36 3d
       -0.051304318 0.04957186 -0.049878933 0.044560675
0000d0 1c 86 5f 3c 73 7f 55 bd 81 04 31 3d cf 46 3d bd
       0.013642814 -0.0521235 0.043217186 -0.046210106
0000e0 50 79 69 bd f2 04 dd 3c 0a 4e eb 3c d4 a9 09 bd
       -0.05700046 0.026979897 0.028723735 -0.033609226
0000f0 04 98 12 bc 7d 9e 32 bd 10 33 2d bd 80 e4 8d bb
       -0.008947376 -0.043608177 -0.042285025 -0.004330218
000100 80 66 e8 bb 5e 7f af bc 90 77 80 bc d8 ab 81 bb
       -0.007092297 -0.021423038 -0.015682012 -0.003957253
000110 66 59 60 bd f6 47 a5 bc 0e ca 69 bd 23 44 20 3d
       -0.054772757 -0.020175915 -0.05707746 0.03912748
000120 dc 1a 3b 3c 45 3a 6e 3d 56 d1 c0 3c 2c c7 66 3c
       0.011419978 0.05816104 0.02353732 0.014085572
000130 11 5a 46 3d b6 0c 83 bc ad d7 5f bd 70 14 c5 bc
       0.048425738 -0.015997272 -0.054649044 -0.024057597
000140 41 41 6f 3d 3d 7f 04 3d 70 f9 15 bd 2c 30 65 3c
       0.05841184 0.032347906 -0.036614835 0.013988536
000150 ce 37 ff 3c 5a ce 12 bd 4d 49 65 3d ad 63 25 bd
       0.03115454 -0.035841323 0.05597811 -0.04037826
000160 9d 84 28 3d 59 19 3b 3d 16 05 28 bd bb 90 3b 3d
       0.041142095 0.04567847 -0.041020475 0.045792323
000170 04 5e 20 3c 2c 11 73 3c a3 bb 5b 3d 1c 7a 02 3c
       0.00978804 0.014835637 0.05364574 0.007963683
000180 60 33 be bb 90 c3 f6 bb d8 ab d6 3b 1b f3 15 3d
       -0.005804464 -0.007530637 0.006551247 0.036608797
000190 99 d7 3d bd c2 2e 9a bc bc 8c 17 3c 2c 8b 48 bd
       -0.046348188 -0.018821124 0.009249862 -0.04896085
0001a0 e0 c9 b9 bb b4 02 2a 3c 73 54 05 bd 5b cb 0c 3d
       -0.0056698173 0.010376621 -0.03255124 0.034373622
0001b0 6f 4b 5f 3d 95 3d 68 3d 23 c9 24 3d e3 a0 53 3d
       0.0545153 0.056699354 0.04023088 0.051667105
0001c0 da 8c c3 3c a8 57 d4 3b 0f bd 4b bd 04 b9 29 3c
       0.023870874 0.006480176 -0.049740847 0.010359053
0001d0 44 ea 61 3c 09 19 2b 3d 98 10 57 bc e8 28 ce 3b
       0.013788763 0.041771922 -0.013126515 0.0062914975
0001e0 ee 11 96 3c 68 e1 bc 3b cb d0 2b 3d 5c 0c 57 3c
       0.018319096 0.005764175 0.041947167 0.013125505
0001f0 66 81 31 bd 34 d4 00 3c e6 31 c5 bc 1b 5e 68 3d
       -0.043336295 0.007863093 -0.024071645 0.05673037
000200 96 5e c1 bc 98 95 41 bd 40 93 fa bb b3 03 11 3d
       -0.023604672 -0.047261804 -0.007646948 0.03540392
000210 74 06 59 3c 74 29 6a 3c c9 48 56 3d 96 1a 96 bc
       0.013246167 0.01429211 0.052315507 -0.018323224
000220 f8 c3 6b bd 92 f6 b0 3c ca b6 a1 3c b0 a4 68 bb
       -0.057559937 0.021601949 0.01974048 -0.0035498552
000230 5c 18 00 bd e4 69 73 3c ac a1 8a bc 7c b3 54 3c
       -0.03127323 0.014856789 -0.016922794 0.012982246

fc4.weight f4 [4, 144]
000000 24 c9 95 bd 99 af 90 3d 80 11 49 ba be 92 2a bd
       -0.07313755 0.070647426 -0.0007670149 -0.04164385
000010 40 97 d8 3c 76 9f e3 bc 48 b9 26 bd a0 91 89 bc
       0.02643931 -0.027785998 -0.04070404 -0.016793072
000020 e0 78 17 3b 20 8b 4e 3b 9b f1 94 bd 68 37 4b bc
       0.0023112819 0.003151603 -0.07272645 -0.012403347
000030 6e 96 5e 3d ea cd 95 bd b8 2d 20 bd 40 0e 8e bd
       0.05434268 -0.073146656 -0.0391061 -0.06936312
000040 06 25 d7 bc 65 07 90 3d 0b 3d 2f bd 33 08 a3 bd
       -0.026262771 0.070326604 -0.042782824 -0.07960548
000050 b8 98 00 bc 92 e0 66 3d 69 db 81 3d c0 8f be bb
       -0.007848911 0.05636651 0.06340677 -0.005815476
000060 3a 70 67 3d b0 9d e0 bb d8 e1 6b 3c 9e e2 4c 3d
       0.056503512 -0.0068547353 0.014397107 0.050020806
000070 dd e4 a5 3d 2a 80 9b bd 84 99 b4 3c 00 9b 24 3d
       0.08100293 -0.07592805 0.022045858 0.040186882
000080 38 d3 81 bd 58 87 12 bd d6 e3 63 3d 48 bd 31 bc
       -0.06339115 -0.035773605 0.055637203 -0.010848351
000090 ce f2 2a bd 80 c8 86 bb 5e ec a4 bd 3f c9 89 3d
       -0.041735463 -0.004113257 -0.08052896 0.06727838
0000a0 e0 ac 6a bd 1e bc 2a 3d 5a 10 0a 3d 5a a9 37 3d
       -0.057293773 0.04168331 0.033707 0.04483924
0000b0 38 39 32 3c a8 f9 6d 3c c6 aa 88 bd 0c 97 c4 bc
       0.0108779 0.014524855 -0.066731974 -0.023997806
0000c0 07 ee 9c bd f6 cf 0b 3d 00 1c 54 ba 3c 92 fa 3c
       -0.076625876 0.034133874 -0.00080913305 0.030587308
0000d0 55 8c 99 3d 73 2a 39 bd 1b 51 6f bd 38 1a 60 3c
       0.07497469 -0.0452065 -0.058426958 0.013678126
0000e0 cc e5 9e bd 82 0f 48 3d 30 3d 8d bd 52 bb 48 3d
       -0.07758674 0.048842914 -0.06896436 0.049006768
0000f0 e8 b6 11 bc ad 96 93 3d 76 d2 67 3d 71 ad 94 3d
       -0.008893706 0.072064735 0.056597196 0.07259644
000100 68 3d a6 bd e6 84 8d bd c5 aa a6 3d 0e 87 90 bd
       -0.08117181 -0.06910114 0.081380405 -0.0705701
000110 b8 00 62 3c 7c f8 95 bc 36 fe b1 bc 74 d5 9e 3c
       0.013794117 -0.018306963 -0.021727663 0.019388892
000120 14 24 ad 3c 30 b1 08 bd 48 93 7d bd 7e a0 20 3d
       0.021135367 -0.033372104 -0.061908036 0.039215557
000130 88 e6 37 bc 00 b3 5f bc 9c 61 8c bc 11 ed 9f 3d
       -0.0112243965 -0.013653517 -0.017136388 0.07808889
000140 a5 9a aa 3d cc 0e e1 3c eb 5f 9c 3d 46 34 31 3d
       0.08330277 0.027472876 0.076354824 0.043262742
000150 96 d7 9f bd 7e f6 18 bd 08 26 07 bd b8 2a 6b 3c
       -0.07804792 -0.03734445 -0.032995254 0.014353447
000160 f2 ef 52 3d 9c 35 f1 bc 23 1a 64 bd 40 aa 1c 3d
       0.05149836 -0.029444508 -0.05568899 0.0382483
000170 46 68 bf bc 32 03 42 3d 63 76 56 bd a0 5d 02 3b
       -0.023365151 0.04736633 -0.052358996 0.001989223
000180 b6 99 28 3d ac ab 9b bd 02 7b 4a 3d 20 fe 04 3c
       0.041162215 -0.07601103 0.049433716 0.008117229
000190 60 35 49 bc 3f d6 a3 bd b8 2d 6a bc 24 d5 89 3c
       -0.012280792 -0.079998486 -0.014293127 0.016825266
0001a0 84 e2 9e bd aa 3f 12 3d e6 55 ab bc 60 3c f4 bc
       -0.07758048 0.035705246 -0.020914983 -0.029813945
0001b0 e3 8a 45 bd 1c 05 86 bd dd 31 9c 3d 76 2f 31 3d
       -0.048228156 -0.06543943 0.07626698 0.043258153
0001c0 d0 85 f1 bc b4 fb 8e 3c b1 23 9a 3d e4 54 9d bd
       -0.029482752 0.017454006 0.07526339 -0.07682207
0001d0 10 b2 74 bd 94 51 91 bd 96 01 b8 bc 76 23 41 3d
       -0.059740126 -0.07095638 -0.022461694 0.04715296
0001e0 f8 35 84 bd 59 c5 82 3d 60 20 05 bd 1a 7a 63 3d
       -0.06455606 0.06385297 -0.03250158 0.055536367
0001f0 88 9c 6e bc 33 b9 42 bd f6 72 26 3d d2 ef 62 3d
       -0.014563687 -0.0475399 0.04063698 0.05540449
000200 7c 87 e3 3c 60 90 11 3c 13 48 14 bd 73 f7 4a bd
       0.027774565 0.008884519 -0.036201548 -0.049552392
000210 c6 13 57 3d 80 f0 79 bc d8 cb 64 bd e6 12 7d 3d
       0.05250909 -0.015255094 -0.055858463 0.0617856
000220 0e 5a a9 bd ce 7a 5d 3d b0 ff a4 3b e0 3f 19 bd
       -0.0826913 0.054072194 0.005035363 -0.03741443
000230 72 e5 21 3d 48 63 69 bd f6 3f 09 bd 30 2e c1 3c
       0.039525457 -0.056979448 -0.033508264 0.023581594
000240 f8 9e 65 bc b6 da 50 bd b6 3d 06 3d 42 d7 3b 3d
       -0.014014952 -0.05098983 0.032773696 0.045859583
000250 7b 4f 86 3d a8 2b 70 bd 82 53 2f 3d 90 af fd 3b
       0.065581284 -0.058635384 0.04280425 0.007741876
000260 c8 b6 11 3c 61 5f a7 3d 04 dc d0 3c 00 e3 dd 3a
       0.008893676 0.08172489 0.025495537 0.0016928613
000270 90 30 d5 bb d0 cc 88 bc 9e 86 58 bd 34 e2 fc 3c
       -0.0065060332 -0.016699225 -0.052862756 0.03086958
000280 c0 8a d7 bc 80 c0 86 bd a8 eb 17 bd 86 ba 35 bd
       -0.026311278 -0.06579685 -0.037089974 -0.044367336
000290 0a 58 81 bd ee 03 8b bd ba 4e 55 3d 6c 57 86 bd
       -0.0631562 -0.06787859 0.052077033 -0.06559643
0002a0 68 5c 37 3c 10 f6 a7 3b b0 3b 37 bd 80 ab 04 bb
       0.011191465 0.0051257685 -0.044734657 -0.0020243824
0002b0 b8 19 72 bc 80 ed 01 3c b8 35 87 bd cc 62 bc 3c
       -0.01477664 0.00793016 -0.06602043 0.022996329
0002c0 41 87 94 3d 00 67 61 bd 2a fd 75 3d f0 9a bd bb
       0.0725236 -0.05502987 0.06005589 -0.0057862923
0002d0 b5 8e 87 3d 61 f2 a0 3d d0 e9 93 bc 80 d7 1a 3a
       0.06619016 0.0785873 -0.018055826 0.0005906746
0002e0 6e 67 45 3d a0 01 3c bb 00 10 3c bd d6 72 3f 3d
       0.04819434 -0.0028687492 -0.045913696 0.046740375
0002f0 db 25 a9 3d be aa a8 bd 18 49 7b 3c 4a cf 39 3d
       0.082591735 -0.082356915 0.015337251 0.045363702
000300 ce 43 95 bd 96 a0 20 bd 4c cd 9b bd 44 d8 be 3c
       -0.07288323 -0.039215647 -0.07607517 0.023296483
000310 78 43 20 3c 7e af 53 bd 2e 02 93 bd 00 9f ff 3b
       0.009781711 -0.051681034 -0.0717815 0.0078009367
000320 ed ee 92 3d 2e 7b 90 bd 1b 01 96 bd 1b f2 08 bd
       0.07174478 -0.07054745 -0.073244296 -0.033434015
000330 53 f6 a3 3d c4 86 85 bc 5a b5 5a 3d 00 32 40 bc
       0.08005967 -0.016299613 0.053395607 -0.011730671
000340 62 46 87 bd 20 e6 8b 3c 5d 82 96 3d 20 17 0a 3d
       -0.06605221 0.017077506 0.073490836 0.03371346
000350 c0 ba 1c bc a4 7d 86 bd cc 1e aa bd 36 46 2a 3d
       -0.009566009 -0.06566933 -0.08306655 0.041570865
000360 72 8d 76 3d af 11 99 bd b4 d0 9f bd 4a 76 36 3d
       0.060193487 -0.07474076 -0.07803479 0.044546403
000370 ce c7 47 3d 5e 05 16 bd cc b9 df 3c ba 70 1a 3d
       0.048774533 -0.036626212 0.027310275 0.03770516
000380 62 c2 49 3d a2 ad 61 3d 8c 98 a0 bc 90 1e 8d bd
       0.049257644 0.05509723 -0.01960399 -0.06890595
000390 3b 39 93 bd 10 5f a9 3b fa 7f 46 3d c0 6f 03 bd
       -0.0718865 0.005168803 0.04846189 -0.032088995
0003a0 48 54 0e bc 68 71 6a bd a0 c1 30 bb f8 01 7c 3c
       -0.008687086 -0.05723706 -0.0026970878 0.015381329
0003b0 67 ba 8f 3d 49 23 91 3d ab 5a 4c bd e5 4e 80 3d
       0.07017975 0.07086808 -0.049891155 0.06265048
0003c0 46 30 26 3d ee 66 8c bd d6 d0 24 3d ce bc 38 bd
       0.04057338 -0.0685557 0.040238224 -0.045101933
0003d0 18 0c 5a 3c c6 ab 66 3d c2 64 29 3d b2 48 5b 3d
       0.013308547 0.05631616 0.041355856 0.053536125
0003e0 33 70 37 bd ac c0 c9 bc ec d4 80 bc 0e d2 47 3d
       -0.044784736 -0.024628006 -0.015726529 0.048784308
0003f0 04 8f aa bc 7c 43 b9 bc ef 19 83 bd 64 b9 e6 3c
       -0.020820148 -0.022615187 -0.06401431 0.028164573

fc4.bias f4 [4]
000000 90 e1 9c bb a0 88 4a bd 60 34 ad 3c c7 78 a5 bd
       -0.0047876313 -0.049446702 0.021143138 -0.08079677
